{
  "nodes": [
    {
      "op": "null", 
      "name": "data", 
      "inputs": []
    }, 
    {
      "op": "null", 
      "name": "bn_data_moving_mean", 
      "inputs": []
    }, 
    {
      "op": "tvm_op", 
      "name": "fused_negative", 
      "attrs": {
        "flatten_data": "0", 
        "func_name": "fused_negative", 
        "num_inputs": "1", 
        "num_outputs": "1"
      }, 
      "inputs": [[1, 0, 0]]
    }, 
    {
      "op": "null", 
      "name": "constant0", 
      "inputs": []
    }, 
    {
      "op": "null", 
      "name": "bn_data_moving_var", 
      "inputs": []
    }, 
    {
      "op": "null", 
      "name": "constant1", 
      "inputs": []
    }, 
    {
      "op": "tvm_op", 
      "name": "fused_add_11", 
      "attrs": {
        "flatten_data": "0", 
        "func_name": "fused_add_11", 
        "num_inputs": "2", 
        "num_outputs": "1"
      }, 
      "inputs": [[4, 0, 0], [5, 0, 0]]
    }, 
    {
      "op": "tvm_op", 
      "name": "fused_sqrt", 
      "attrs": {
        "flatten_data": "0", 
        "func_name": "fused_sqrt", 
        "num_inputs": "1", 
        "num_outputs": "1"
      }, 
      "inputs": [[6, 0, 0]]
    }, 
    {
      "op": "tvm_op", 
      "name": "fused_divide_1", 
      "attrs": {
        "flatten_data": "0", 
        "func_name": "fused_divide_1", 
        "num_inputs": "2", 
        "num_outputs": "1"
      }, 
      "inputs": [[3, 0, 0], [7, 0, 0]]
    }, 
    {
      "op": "tvm_op", 
      "name": "fused_multiply_1", 
      "attrs": {
        "flatten_data": "0", 
        "func_name": "fused_multiply_1", 
        "num_inputs": "2", 
        "num_outputs": "1"
      }, 
      "inputs": [[2, 0, 0], [8, 0, 0]]
    }, 
    {
      "op": "null", 
      "name": "bn_data_beta", 
      "inputs": []
    }, 
    {
      "op": "tvm_op", 
      "name": "fused_add_10", 
      "attrs": {
        "flatten_data": "0", 
        "func_name": "fused_add_10", 
        "num_inputs": "2", 
        "num_outputs": "1"
      }, 
      "inputs": [[9, 0, 0], [10, 0, 0]]
    }, 
    {
      "op": "tvm_op", 
      "name": "fused_expand_dims", 
      "attrs": {
        "flatten_data": "0", 
        "func_name": "fused_expand_dims", 
        "num_inputs": "1", 
        "num_outputs": "1"
      }, 
      "inputs": [[11, 0, 0]]
    }, 
    {
      "op": "tvm_op", 
      "name": "fused_expand_dims1", 
      "attrs": {
        "flatten_data": "0", 
        "func_name": "fused_expand_dims", 
        "num_inputs": "1", 
        "num_outputs": "1"
      }, 
      "inputs": [[8, 0, 0]]
    }, 
    {
      "op": "tvm_op", 
      "name": "fused_squeeze", 
      "attrs": {
        "flatten_data": "0", 
        "func_name": "fused_squeeze", 
        "num_inputs": "1", 
        "num_outputs": "1"
      }, 
      "inputs": [[13, 0, 0]]
    }, 
    {
      "op": "tvm_op", 
      "name": "fused_expand_dims2", 
      "attrs": {
        "flatten_data": "0", 
        "func_name": "fused_expand_dims", 
        "num_inputs": "1", 
        "num_outputs": "1"
      }, 
      "inputs": [[14, 0, 0]]
    }, 
    {
      "op": "tvm_op", 
      "name": "fused_divide", 
      "attrs": {
        "flatten_data": "0", 
        "func_name": "fused_divide", 
        "num_inputs": "2", 
        "num_outputs": "1"
      }, 
      "inputs": [[12, 0, 0], [15, 0, 0]]
    }, 
    {
      "op": "tvm_op", 
      "name": "fused_add_9", 
      "attrs": {
        "flatten_data": "0", 
        "func_name": "fused_add_9", 
        "num_inputs": "2", 
        "num_outputs": "1"
      }, 
      "inputs": [[0, 0, 0], [16, 0, 0]]
    }, 
    {
      "op": "null", 
      "name": "conv0_weight", 
      "inputs": []
    }, 
    {
      "op": "null", 
      "name": "constant2", 
      "inputs": []
    }, 
    {
      "op": "null", 
      "name": "bn0_moving_var", 
      "inputs": []
    }, 
    {
      "op": "null", 
      "name": "constant3", 
      "inputs": []
    }, 
    {
      "op": "tvm_op", 
      "name": "fused_add_12", 
      "attrs": {
        "flatten_data": "0", 
        "func_name": "fused_add_12", 
        "num_inputs": "2", 
        "num_outputs": "1"
      }, 
      "inputs": [[20, 0, 0], [21, 0, 0]]
    }, 
    {
      "op": "tvm_op", 
      "name": "fused_sqrt_1", 
      "attrs": {
        "flatten_data": "0", 
        "func_name": "fused_sqrt_1", 
        "num_inputs": "1", 
        "num_outputs": "1"
      }, 
      "inputs": [[22, 0, 0]]
    }, 
    {
      "op": "tvm_op", 
      "name": "fused_divide_2", 
      "attrs": {
        "flatten_data": "0", 
        "func_name": "fused_divide_2", 
        "num_inputs": "2", 
        "num_outputs": "1"
      }, 
      "inputs": [[19, 0, 0], [23, 0, 0]]
    }, 
    {
      "op": "null", 
      "name": "bn0_gamma", 
      "inputs": []
    }, 
    {
      "op": "tvm_op", 
      "name": "fused_multiply_4", 
      "attrs": {
        "flatten_data": "0", 
        "func_name": "fused_multiply_4", 
        "num_inputs": "2", 
        "num_outputs": "1"
      }, 
      "inputs": [[24, 0, 0], [25, 0, 0]]
    }, 
    {
      "op": "tvm_op", 
      "name": "fused_expand_dims_2", 
      "attrs": {
        "flatten_data": "0", 
        "func_name": "fused_expand_dims_2", 
        "num_inputs": "1", 
        "num_outputs": "1"
      }, 
      "inputs": [[26, 0, 0]]
    }, 
    {
      "op": "tvm_op", 
      "name": "fused_squeeze_1", 
      "attrs": {
        "flatten_data": "0", 
        "func_name": "fused_squeeze_1", 
        "num_inputs": "1", 
        "num_outputs": "1"
      }, 
      "inputs": [[27, 0, 0]]
    }, 
    {
      "op": "tvm_op", 
      "name": "fused_expand_dims_1", 
      "attrs": {
        "flatten_data": "0", 
        "func_name": "fused_expand_dims_1", 
        "num_inputs": "1", 
        "num_outputs": "1"
      }, 
      "inputs": [[28, 0, 0]]
    }, 
    {
      "op": "tvm_op", 
      "name": "fused_multiply_3", 
      "attrs": {
        "flatten_data": "0", 
        "func_name": "fused_multiply_3", 
        "num_inputs": "2", 
        "num_outputs": "1"
      }, 
      "inputs": [[18, 0, 0], [29, 0, 0]]
    }, 
    {
      "op": "tvm_op", 
      "name": "fused_expand_dims3", 
      "attrs": {
        "flatten_data": "0", 
        "func_name": "fused_expand_dims", 
        "num_inputs": "1", 
        "num_outputs": "1"
      }, 
      "inputs": [[14, 0, 0]]
    }, 
    {
      "op": "tvm_op", 
      "name": "fused_multiply_2", 
      "attrs": {
        "flatten_data": "0", 
        "func_name": "fused_multiply_2", 
        "num_inputs": "2", 
        "num_outputs": "1"
      }, 
      "inputs": [[30, 0, 0], [31, 0, 0]]
    }, 
    {
      "op": "tvm_op", 
      "name": "fused_nn_conv2d_7", 
      "attrs": {
        "flatten_data": "0", 
        "func_name": "fused_nn_conv2d_7", 
        "num_inputs": "2", 
        "num_outputs": "1"
      }, 
      "inputs": [[17, 0, 0], [32, 0, 0]]
    }, 
    {
      "op": "null", 
      "name": "bn0_moving_mean", 
      "inputs": []
    }, 
    {
      "op": "tvm_op", 
      "name": "fused_negative_1", 
      "attrs": {
        "flatten_data": "0", 
        "func_name": "fused_negative_1", 
        "num_inputs": "1", 
        "num_outputs": "1"
      }, 
      "inputs": [[34, 0, 0]]
    }, 
    {
      "op": "tvm_op", 
      "name": "fused_multiply_41", 
      "attrs": {
        "flatten_data": "0", 
        "func_name": "fused_multiply_4", 
        "num_inputs": "2", 
        "num_outputs": "1"
      }, 
      "inputs": [[35, 0, 0], [26, 0, 0]]
    }, 
    {
      "op": "null", 
      "name": "bn0_beta", 
      "inputs": []
    }, 
    {
      "op": "tvm_op", 
      "name": "fused_add_13", 
      "attrs": {
        "flatten_data": "0", 
        "func_name": "fused_add_13", 
        "num_inputs": "2", 
        "num_outputs": "1"
      }, 
      "inputs": [[36, 0, 0], [37, 0, 0]]
    }, 
    {
      "op": "tvm_op", 
      "name": "fused_expand_dims_21", 
      "attrs": {
        "flatten_data": "0", 
        "func_name": "fused_expand_dims_2", 
        "num_inputs": "1", 
        "num_outputs": "1"
      }, 
      "inputs": [[38, 0, 0]]
    }, 
    {
      "op": "tvm_op", 
      "name": "fused_add_8", 
      "attrs": {
        "flatten_data": "0", 
        "func_name": "fused_add_8", 
        "num_inputs": "2", 
        "num_outputs": "1"
      }, 
      "inputs": [[33, 0, 0], [39, 0, 0]]
    }, 
    {
      "op": "tvm_op", 
      "name": "fused_nn_relu_4", 
      "attrs": {
        "flatten_data": "0", 
        "func_name": "fused_nn_relu_4", 
        "num_inputs": "1", 
        "num_outputs": "1"
      }, 
      "inputs": [[40, 0, 0]]
    }, 
    {
      "op": "tvm_op", 
      "name": "fused_nn_max_pool2d", 
      "attrs": {
        "flatten_data": "0", 
        "func_name": "fused_nn_max_pool2d", 
        "num_inputs": "1", 
        "num_outputs": "1"
      }, 
      "inputs": [[41, 0, 0]]
    }, 
    {
      "op": "null", 
      "name": "stage1_unit1_bn1_moving_mean", 
      "inputs": []
    }, 
    {
      "op": "tvm_op", 
      "name": "fused_negative_11", 
      "attrs": {
        "flatten_data": "0", 
        "func_name": "fused_negative_1", 
        "num_inputs": "1", 
        "num_outputs": "1"
      }, 
      "inputs": [[43, 0, 0]]
    }, 
    {
      "op": "null", 
      "name": "constant4", 
      "inputs": []
    }, 
    {
      "op": "null", 
      "name": "stage1_unit1_bn1_moving_var", 
      "inputs": []
    }, 
    {
      "op": "null", 
      "name": "constant5", 
      "inputs": []
    }, 
    {
      "op": "tvm_op", 
      "name": "fused_add_121", 
      "attrs": {
        "flatten_data": "0", 
        "func_name": "fused_add_12", 
        "num_inputs": "2", 
        "num_outputs": "1"
      }, 
      "inputs": [[46, 0, 0], [47, 0, 0]]
    }, 
    {
      "op": "tvm_op", 
      "name": "fused_sqrt_11", 
      "attrs": {
        "flatten_data": "0", 
        "func_name": "fused_sqrt_1", 
        "num_inputs": "1", 
        "num_outputs": "1"
      }, 
      "inputs": [[48, 0, 0]]
    }, 
    {
      "op": "tvm_op", 
      "name": "fused_divide_21", 
      "attrs": {
        "flatten_data": "0", 
        "func_name": "fused_divide_2", 
        "num_inputs": "2", 
        "num_outputs": "1"
      }, 
      "inputs": [[45, 0, 0], [49, 0, 0]]
    }, 
    {
      "op": "null", 
      "name": "stage1_unit1_bn1_gamma", 
      "inputs": []
    }, 
    {
      "op": "tvm_op", 
      "name": "fused_multiply_42", 
      "attrs": {
        "flatten_data": "0", 
        "func_name": "fused_multiply_4", 
        "num_inputs": "2", 
        "num_outputs": "1"
      }, 
      "inputs": [[50, 0, 0], [51, 0, 0]]
    }, 
    {
      "op": "tvm_op", 
      "name": "fused_multiply_43", 
      "attrs": {
        "flatten_data": "0", 
        "func_name": "fused_multiply_4", 
        "num_inputs": "2", 
        "num_outputs": "1"
      }, 
      "inputs": [[44, 0, 0], [52, 0, 0]]
    }, 
    {
      "op": "null", 
      "name": "stage1_unit1_bn1_beta", 
      "inputs": []
    }, 
    {
      "op": "tvm_op", 
      "name": "fused_add_131", 
      "attrs": {
        "flatten_data": "0", 
        "func_name": "fused_add_13", 
        "num_inputs": "2", 
        "num_outputs": "1"
      }, 
      "inputs": [[53, 0, 0], [54, 0, 0]]
    }, 
    {
      "op": "tvm_op", 
      "name": "fused_expand_dims_22", 
      "attrs": {
        "flatten_data": "0", 
        "func_name": "fused_expand_dims_2", 
        "num_inputs": "1", 
        "num_outputs": "1"
      }, 
      "inputs": [[55, 0, 0]]
    }, 
    {
      "op": "tvm_op", 
      "name": "fused_expand_dims_23", 
      "attrs": {
        "flatten_data": "0", 
        "func_name": "fused_expand_dims_2", 
        "num_inputs": "1", 
        "num_outputs": "1"
      }, 
      "inputs": [[52, 0, 0]]
    }, 
    {
      "op": "tvm_op", 
      "name": "fused_squeeze_11", 
      "attrs": {
        "flatten_data": "0", 
        "func_name": "fused_squeeze_1", 
        "num_inputs": "1", 
        "num_outputs": "1"
      }, 
      "inputs": [[57, 0, 0]]
    }, 
    {
      "op": "tvm_op", 
      "name": "fused_expand_dims_24", 
      "attrs": {
        "flatten_data": "0", 
        "func_name": "fused_expand_dims_2", 
        "num_inputs": "1", 
        "num_outputs": "1"
      }, 
      "inputs": [[58, 0, 0]]
    }, 
    {
      "op": "tvm_op", 
      "name": "fused_divide_3", 
      "attrs": {
        "flatten_data": "0", 
        "func_name": "fused_divide_3", 
        "num_inputs": "2", 
        "num_outputs": "1"
      }, 
      "inputs": [[56, 0, 0], [59, 0, 0]]
    }, 
    {
      "op": "tvm_op", 
      "name": "fused_add_6", 
      "attrs": {
        "flatten_data": "0", 
        "func_name": "fused_add_6", 
        "num_inputs": "2", 
        "num_outputs": "1"
      }, 
      "inputs": [[42, 0, 0], [60, 0, 0]]
    }, 
    {
      "op": "tvm_op", 
      "name": "fused_nn_relu_3", 
      "attrs": {
        "flatten_data": "0", 
        "func_name": "fused_nn_relu_3", 
        "num_inputs": "1", 
        "num_outputs": "1"
      }, 
      "inputs": [[61, 0, 0]]
    }, 
    {
      "op": "null", 
      "name": "stage1_unit1_conv1_weight", 
      "inputs": []
    }, 
    {
      "op": "null", 
      "name": "constant6", 
      "inputs": []
    }, 
    {
      "op": "null", 
      "name": "stage1_unit1_bn2_moving_var", 
      "inputs": []
    }, 
    {
      "op": "null", 
      "name": "constant7", 
      "inputs": []
    }, 
    {
      "op": "tvm_op", 
      "name": "fused_add_122", 
      "attrs": {
        "flatten_data": "0", 
        "func_name": "fused_add_12", 
        "num_inputs": "2", 
        "num_outputs": "1"
      }, 
      "inputs": [[65, 0, 0], [66, 0, 0]]
    }, 
    {
      "op": "tvm_op", 
      "name": "fused_sqrt_12", 
      "attrs": {
        "flatten_data": "0", 
        "func_name": "fused_sqrt_1", 
        "num_inputs": "1", 
        "num_outputs": "1"
      }, 
      "inputs": [[67, 0, 0]]
    }, 
    {
      "op": "tvm_op", 
      "name": "fused_divide_22", 
      "attrs": {
        "flatten_data": "0", 
        "func_name": "fused_divide_2", 
        "num_inputs": "2", 
        "num_outputs": "1"
      }, 
      "inputs": [[64, 0, 0], [68, 0, 0]]
    }, 
    {
      "op": "null", 
      "name": "stage1_unit1_bn2_gamma", 
      "inputs": []
    }, 
    {
      "op": "tvm_op", 
      "name": "fused_multiply_44", 
      "attrs": {
        "flatten_data": "0", 
        "func_name": "fused_multiply_4", 
        "num_inputs": "2", 
        "num_outputs": "1"
      }, 
      "inputs": [[69, 0, 0], [70, 0, 0]]
    }, 
    {
      "op": "tvm_op", 
      "name": "fused_expand_dims_25", 
      "attrs": {
        "flatten_data": "0", 
        "func_name": "fused_expand_dims_2", 
        "num_inputs": "1", 
        "num_outputs": "1"
      }, 
      "inputs": [[71, 0, 0]]
    }, 
    {
      "op": "tvm_op", 
      "name": "fused_squeeze_12", 
      "attrs": {
        "flatten_data": "0", 
        "func_name": "fused_squeeze_1", 
        "num_inputs": "1", 
        "num_outputs": "1"
      }, 
      "inputs": [[72, 0, 0]]
    }, 
    {
      "op": "tvm_op", 
      "name": "fused_expand_dims_11", 
      "attrs": {
        "flatten_data": "0", 
        "func_name": "fused_expand_dims_1", 
        "num_inputs": "1", 
        "num_outputs": "1"
      }, 
      "inputs": [[73, 0, 0]]
    }, 
    {
      "op": "tvm_op", 
      "name": "fused_multiply_6", 
      "attrs": {
        "flatten_data": "0", 
        "func_name": "fused_multiply_6", 
        "num_inputs": "2", 
        "num_outputs": "1"
      }, 
      "inputs": [[63, 0, 0], [74, 0, 0]]
    }, 
    {
      "op": "tvm_op", 
      "name": "fused_expand_dims_26", 
      "attrs": {
        "flatten_data": "0", 
        "func_name": "fused_expand_dims_2", 
        "num_inputs": "1", 
        "num_outputs": "1"
      }, 
      "inputs": [[58, 0, 0]]
    }, 
    {
      "op": "tvm_op", 
      "name": "fused_multiply_5", 
      "attrs": {
        "flatten_data": "0", 
        "func_name": "fused_multiply_5", 
        "num_inputs": "2", 
        "num_outputs": "1"
      }, 
      "inputs": [[75, 0, 0], [76, 0, 0]]
    }, 
    {
      "op": "tvm_op", 
      "name": "fused_nn_conv2d_6", 
      "attrs": {
        "flatten_data": "0", 
        "func_name": "fused_nn_conv2d_6", 
        "num_inputs": "2", 
        "num_outputs": "1"
      }, 
      "inputs": [[62, 0, 0], [77, 0, 0]]
    }, 
    {
      "op": "null", 
      "name": "stage1_unit1_bn2_moving_mean", 
      "inputs": []
    }, 
    {
      "op": "tvm_op", 
      "name": "fused_negative_12", 
      "attrs": {
        "flatten_data": "0", 
        "func_name": "fused_negative_1", 
        "num_inputs": "1", 
        "num_outputs": "1"
      }, 
      "inputs": [[79, 0, 0]]
    }, 
    {
      "op": "tvm_op", 
      "name": "fused_multiply_45", 
      "attrs": {
        "flatten_data": "0", 
        "func_name": "fused_multiply_4", 
        "num_inputs": "2", 
        "num_outputs": "1"
      }, 
      "inputs": [[80, 0, 0], [71, 0, 0]]
    }, 
    {
      "op": "null", 
      "name": "stage1_unit1_bn2_beta", 
      "inputs": []
    }, 
    {
      "op": "tvm_op", 
      "name": "fused_add_132", 
      "attrs": {
        "flatten_data": "0", 
        "func_name": "fused_add_13", 
        "num_inputs": "2", 
        "num_outputs": "1"
      }, 
      "inputs": [[81, 0, 0], [82, 0, 0]]
    }, 
    {
      "op": "tvm_op", 
      "name": "fused_expand_dims_27", 
      "attrs": {
        "flatten_data": "0", 
        "func_name": "fused_expand_dims_2", 
        "num_inputs": "1", 
        "num_outputs": "1"
      }, 
      "inputs": [[83, 0, 0]]
    }, 
    {
      "op": "tvm_op", 
      "name": "fused_add_61", 
      "attrs": {
        "flatten_data": "0", 
        "func_name": "fused_add_6", 
        "num_inputs": "2", 
        "num_outputs": "1"
      }, 
      "inputs": [[78, 0, 0], [84, 0, 0]]
    }, 
    {
      "op": "tvm_op", 
      "name": "fused_nn_relu_31", 
      "attrs": {
        "flatten_data": "0", 
        "func_name": "fused_nn_relu_3", 
        "num_inputs": "1", 
        "num_outputs": "1"
      }, 
      "inputs": [[85, 0, 0]]
    }, 
    {
      "op": "null", 
      "name": "stage1_unit1_conv2_weight", 
      "inputs": []
    }, 
    {
      "op": "tvm_op", 
      "name": "fused_nn_conv2d_61", 
      "attrs": {
        "flatten_data": "0", 
        "func_name": "fused_nn_conv2d_6", 
        "num_inputs": "2", 
        "num_outputs": "1"
      }, 
      "inputs": [[86, 0, 0], [87, 0, 0]]
    }, 
    {
      "op": "tvm_op", 
      "name": "fused_nn_relu_32", 
      "attrs": {
        "flatten_data": "0", 
        "func_name": "fused_nn_relu_3", 
        "num_inputs": "1", 
        "num_outputs": "1"
      }, 
      "inputs": [[61, 0, 0]]
    }, 
    {
      "op": "null", 
      "name": "stage1_unit1_sc_weight", 
      "inputs": []
    }, 
    {
      "op": "tvm_op", 
      "name": "fused_expand_dims_28", 
      "attrs": {
        "flatten_data": "0", 
        "func_name": "fused_expand_dims_2", 
        "num_inputs": "1", 
        "num_outputs": "1"
      }, 
      "inputs": [[58, 0, 0]]
    }, 
    {
      "op": "tvm_op", 
      "name": "fused_multiply_7", 
      "attrs": {
        "flatten_data": "0", 
        "func_name": "fused_multiply_7", 
        "num_inputs": "2", 
        "num_outputs": "1"
      }, 
      "inputs": [[90, 0, 0], [91, 0, 0]]
    }, 
    {
      "op": "tvm_op", 
      "name": "fused_nn_conv2d_8", 
      "attrs": {
        "flatten_data": "0", 
        "func_name": "fused_nn_conv2d_8", 
        "num_inputs": "2", 
        "num_outputs": "1"
      }, 
      "inputs": [[89, 0, 0], [92, 0, 0]]
    }, 
    {
      "op": "tvm_op", 
      "name": "fused_add_7", 
      "attrs": {
        "flatten_data": "0", 
        "func_name": "fused_add_7", 
        "num_inputs": "2", 
        "num_outputs": "1"
      }, 
      "inputs": [[88, 0, 0], [93, 0, 0]]
    }, 
    {
      "op": "null", 
      "name": "stage1_unit2_bn1_moving_mean", 
      "inputs": []
    }, 
    {
      "op": "tvm_op", 
      "name": "fused_negative_13", 
      "attrs": {
        "flatten_data": "0", 
        "func_name": "fused_negative_1", 
        "num_inputs": "1", 
        "num_outputs": "1"
      }, 
      "inputs": [[95, 0, 0]]
    }, 
    {
      "op": "null", 
      "name": "constant8", 
      "inputs": []
    }, 
    {
      "op": "null", 
      "name": "stage1_unit2_bn1_moving_var", 
      "inputs": []
    }, 
    {
      "op": "null", 
      "name": "constant9", 
      "inputs": []
    }, 
    {
      "op": "tvm_op", 
      "name": "fused_add_123", 
      "attrs": {
        "flatten_data": "0", 
        "func_name": "fused_add_12", 
        "num_inputs": "2", 
        "num_outputs": "1"
      }, 
      "inputs": [[98, 0, 0], [99, 0, 0]]
    }, 
    {
      "op": "tvm_op", 
      "name": "fused_sqrt_13", 
      "attrs": {
        "flatten_data": "0", 
        "func_name": "fused_sqrt_1", 
        "num_inputs": "1", 
        "num_outputs": "1"
      }, 
      "inputs": [[100, 0, 0]]
    }, 
    {
      "op": "tvm_op", 
      "name": "fused_divide_23", 
      "attrs": {
        "flatten_data": "0", 
        "func_name": "fused_divide_2", 
        "num_inputs": "2", 
        "num_outputs": "1"
      }, 
      "inputs": [[97, 0, 0], [101, 0, 0]]
    }, 
    {
      "op": "null", 
      "name": "stage1_unit2_bn1_gamma", 
      "inputs": []
    }, 
    {
      "op": "tvm_op", 
      "name": "fused_multiply_46", 
      "attrs": {
        "flatten_data": "0", 
        "func_name": "fused_multiply_4", 
        "num_inputs": "2", 
        "num_outputs": "1"
      }, 
      "inputs": [[102, 0, 0], [103, 0, 0]]
    }, 
    {
      "op": "tvm_op", 
      "name": "fused_multiply_47", 
      "attrs": {
        "flatten_data": "0", 
        "func_name": "fused_multiply_4", 
        "num_inputs": "2", 
        "num_outputs": "1"
      }, 
      "inputs": [[96, 0, 0], [104, 0, 0]]
    }, 
    {
      "op": "null", 
      "name": "stage1_unit2_bn1_beta", 
      "inputs": []
    }, 
    {
      "op": "tvm_op", 
      "name": "fused_add_133", 
      "attrs": {
        "flatten_data": "0", 
        "func_name": "fused_add_13", 
        "num_inputs": "2", 
        "num_outputs": "1"
      }, 
      "inputs": [[105, 0, 0], [106, 0, 0]]
    }, 
    {
      "op": "tvm_op", 
      "name": "fused_expand_dims_29", 
      "attrs": {
        "flatten_data": "0", 
        "func_name": "fused_expand_dims_2", 
        "num_inputs": "1", 
        "num_outputs": "1"
      }, 
      "inputs": [[107, 0, 0]]
    }, 
    {
      "op": "tvm_op", 
      "name": "fused_expand_dims_210", 
      "attrs": {
        "flatten_data": "0", 
        "func_name": "fused_expand_dims_2", 
        "num_inputs": "1", 
        "num_outputs": "1"
      }, 
      "inputs": [[104, 0, 0]]
    }, 
    {
      "op": "tvm_op", 
      "name": "fused_squeeze_13", 
      "attrs": {
        "flatten_data": "0", 
        "func_name": "fused_squeeze_1", 
        "num_inputs": "1", 
        "num_outputs": "1"
      }, 
      "inputs": [[109, 0, 0]]
    }, 
    {
      "op": "tvm_op", 
      "name": "fused_expand_dims_211", 
      "attrs": {
        "flatten_data": "0", 
        "func_name": "fused_expand_dims_2", 
        "num_inputs": "1", 
        "num_outputs": "1"
      }, 
      "inputs": [[110, 0, 0]]
    }, 
    {
      "op": "tvm_op", 
      "name": "fused_divide_31", 
      "attrs": {
        "flatten_data": "0", 
        "func_name": "fused_divide_3", 
        "num_inputs": "2", 
        "num_outputs": "1"
      }, 
      "inputs": [[108, 0, 0], [111, 0, 0]]
    }, 
    {
      "op": "tvm_op", 
      "name": "fused_add_62", 
      "attrs": {
        "flatten_data": "0", 
        "func_name": "fused_add_6", 
        "num_inputs": "2", 
        "num_outputs": "1"
      }, 
      "inputs": [[94, 0, 0], [112, 0, 0]]
    }, 
    {
      "op": "tvm_op", 
      "name": "fused_nn_relu_33", 
      "attrs": {
        "flatten_data": "0", 
        "func_name": "fused_nn_relu_3", 
        "num_inputs": "1", 
        "num_outputs": "1"
      }, 
      "inputs": [[113, 0, 0]]
    }, 
    {
      "op": "null", 
      "name": "stage1_unit2_conv1_weight", 
      "inputs": []
    }, 
    {
      "op": "null", 
      "name": "constant10", 
      "inputs": []
    }, 
    {
      "op": "null", 
      "name": "stage1_unit2_bn2_moving_var", 
      "inputs": []
    }, 
    {
      "op": "null", 
      "name": "constant11", 
      "inputs": []
    }, 
    {
      "op": "tvm_op", 
      "name": "fused_add_124", 
      "attrs": {
        "flatten_data": "0", 
        "func_name": "fused_add_12", 
        "num_inputs": "2", 
        "num_outputs": "1"
      }, 
      "inputs": [[117, 0, 0], [118, 0, 0]]
    }, 
    {
      "op": "tvm_op", 
      "name": "fused_sqrt_14", 
      "attrs": {
        "flatten_data": "0", 
        "func_name": "fused_sqrt_1", 
        "num_inputs": "1", 
        "num_outputs": "1"
      }, 
      "inputs": [[119, 0, 0]]
    }, 
    {
      "op": "tvm_op", 
      "name": "fused_divide_24", 
      "attrs": {
        "flatten_data": "0", 
        "func_name": "fused_divide_2", 
        "num_inputs": "2", 
        "num_outputs": "1"
      }, 
      "inputs": [[116, 0, 0], [120, 0, 0]]
    }, 
    {
      "op": "null", 
      "name": "stage1_unit2_bn2_gamma", 
      "inputs": []
    }, 
    {
      "op": "tvm_op", 
      "name": "fused_multiply_48", 
      "attrs": {
        "flatten_data": "0", 
        "func_name": "fused_multiply_4", 
        "num_inputs": "2", 
        "num_outputs": "1"
      }, 
      "inputs": [[121, 0, 0], [122, 0, 0]]
    }, 
    {
      "op": "tvm_op", 
      "name": "fused_expand_dims_212", 
      "attrs": {
        "flatten_data": "0", 
        "func_name": "fused_expand_dims_2", 
        "num_inputs": "1", 
        "num_outputs": "1"
      }, 
      "inputs": [[123, 0, 0]]
    }, 
    {
      "op": "tvm_op", 
      "name": "fused_squeeze_14", 
      "attrs": {
        "flatten_data": "0", 
        "func_name": "fused_squeeze_1", 
        "num_inputs": "1", 
        "num_outputs": "1"
      }, 
      "inputs": [[124, 0, 0]]
    }, 
    {
      "op": "tvm_op", 
      "name": "fused_expand_dims_12", 
      "attrs": {
        "flatten_data": "0", 
        "func_name": "fused_expand_dims_1", 
        "num_inputs": "1", 
        "num_outputs": "1"
      }, 
      "inputs": [[125, 0, 0]]
    }, 
    {
      "op": "tvm_op", 
      "name": "fused_multiply_61", 
      "attrs": {
        "flatten_data": "0", 
        "func_name": "fused_multiply_6", 
        "num_inputs": "2", 
        "num_outputs": "1"
      }, 
      "inputs": [[115, 0, 0], [126, 0, 0]]
    }, 
    {
      "op": "tvm_op", 
      "name": "fused_expand_dims_213", 
      "attrs": {
        "flatten_data": "0", 
        "func_name": "fused_expand_dims_2", 
        "num_inputs": "1", 
        "num_outputs": "1"
      }, 
      "inputs": [[110, 0, 0]]
    }, 
    {
      "op": "tvm_op", 
      "name": "fused_multiply_51", 
      "attrs": {
        "flatten_data": "0", 
        "func_name": "fused_multiply_5", 
        "num_inputs": "2", 
        "num_outputs": "1"
      }, 
      "inputs": [[127, 0, 0], [128, 0, 0]]
    }, 
    {
      "op": "tvm_op", 
      "name": "fused_nn_conv2d_62", 
      "attrs": {
        "flatten_data": "0", 
        "func_name": "fused_nn_conv2d_6", 
        "num_inputs": "2", 
        "num_outputs": "1"
      }, 
      "inputs": [[114, 0, 0], [129, 0, 0]]
    }, 
    {
      "op": "null", 
      "name": "stage1_unit2_bn2_moving_mean", 
      "inputs": []
    }, 
    {
      "op": "tvm_op", 
      "name": "fused_negative_14", 
      "attrs": {
        "flatten_data": "0", 
        "func_name": "fused_negative_1", 
        "num_inputs": "1", 
        "num_outputs": "1"
      }, 
      "inputs": [[131, 0, 0]]
    }, 
    {
      "op": "tvm_op", 
      "name": "fused_multiply_49", 
      "attrs": {
        "flatten_data": "0", 
        "func_name": "fused_multiply_4", 
        "num_inputs": "2", 
        "num_outputs": "1"
      }, 
      "inputs": [[132, 0, 0], [123, 0, 0]]
    }, 
    {
      "op": "null", 
      "name": "stage1_unit2_bn2_beta", 
      "inputs": []
    }, 
    {
      "op": "tvm_op", 
      "name": "fused_add_134", 
      "attrs": {
        "flatten_data": "0", 
        "func_name": "fused_add_13", 
        "num_inputs": "2", 
        "num_outputs": "1"
      }, 
      "inputs": [[133, 0, 0], [134, 0, 0]]
    }, 
    {
      "op": "tvm_op", 
      "name": "fused_expand_dims_214", 
      "attrs": {
        "flatten_data": "0", 
        "func_name": "fused_expand_dims_2", 
        "num_inputs": "1", 
        "num_outputs": "1"
      }, 
      "inputs": [[135, 0, 0]]
    }, 
    {
      "op": "tvm_op", 
      "name": "fused_add_63", 
      "attrs": {
        "flatten_data": "0", 
        "func_name": "fused_add_6", 
        "num_inputs": "2", 
        "num_outputs": "1"
      }, 
      "inputs": [[130, 0, 0], [136, 0, 0]]
    }, 
    {
      "op": "tvm_op", 
      "name": "fused_nn_relu_34", 
      "attrs": {
        "flatten_data": "0", 
        "func_name": "fused_nn_relu_3", 
        "num_inputs": "1", 
        "num_outputs": "1"
      }, 
      "inputs": [[137, 0, 0]]
    }, 
    {
      "op": "null", 
      "name": "stage1_unit2_conv2_weight", 
      "inputs": []
    }, 
    {
      "op": "tvm_op", 
      "name": "fused_nn_conv2d_63", 
      "attrs": {
        "flatten_data": "0", 
        "func_name": "fused_nn_conv2d_6", 
        "num_inputs": "2", 
        "num_outputs": "1"
      }, 
      "inputs": [[138, 0, 0], [139, 0, 0]]
    }, 
    {
      "op": "tvm_op", 
      "name": "fused_add_71", 
      "attrs": {
        "flatten_data": "0", 
        "func_name": "fused_add_7", 
        "num_inputs": "2", 
        "num_outputs": "1"
      }, 
      "inputs": [[140, 0, 0], [94, 0, 0]]
    }, 
    {
      "op": "null", 
      "name": "stage2_unit1_bn1_moving_mean", 
      "inputs": []
    }, 
    {
      "op": "tvm_op", 
      "name": "fused_negative_15", 
      "attrs": {
        "flatten_data": "0", 
        "func_name": "fused_negative_1", 
        "num_inputs": "1", 
        "num_outputs": "1"
      }, 
      "inputs": [[142, 0, 0]]
    }, 
    {
      "op": "null", 
      "name": "constant12", 
      "inputs": []
    }, 
    {
      "op": "null", 
      "name": "stage2_unit1_bn1_moving_var", 
      "inputs": []
    }, 
    {
      "op": "null", 
      "name": "constant13", 
      "inputs": []
    }, 
    {
      "op": "tvm_op", 
      "name": "fused_add_125", 
      "attrs": {
        "flatten_data": "0", 
        "func_name": "fused_add_12", 
        "num_inputs": "2", 
        "num_outputs": "1"
      }, 
      "inputs": [[145, 0, 0], [146, 0, 0]]
    }, 
    {
      "op": "tvm_op", 
      "name": "fused_sqrt_15", 
      "attrs": {
        "flatten_data": "0", 
        "func_name": "fused_sqrt_1", 
        "num_inputs": "1", 
        "num_outputs": "1"
      }, 
      "inputs": [[147, 0, 0]]
    }, 
    {
      "op": "tvm_op", 
      "name": "fused_divide_25", 
      "attrs": {
        "flatten_data": "0", 
        "func_name": "fused_divide_2", 
        "num_inputs": "2", 
        "num_outputs": "1"
      }, 
      "inputs": [[144, 0, 0], [148, 0, 0]]
    }, 
    {
      "op": "null", 
      "name": "stage2_unit1_bn1_gamma", 
      "inputs": []
    }, 
    {
      "op": "tvm_op", 
      "name": "fused_multiply_410", 
      "attrs": {
        "flatten_data": "0", 
        "func_name": "fused_multiply_4", 
        "num_inputs": "2", 
        "num_outputs": "1"
      }, 
      "inputs": [[149, 0, 0], [150, 0, 0]]
    }, 
    {
      "op": "tvm_op", 
      "name": "fused_multiply_411", 
      "attrs": {
        "flatten_data": "0", 
        "func_name": "fused_multiply_4", 
        "num_inputs": "2", 
        "num_outputs": "1"
      }, 
      "inputs": [[143, 0, 0], [151, 0, 0]]
    }, 
    {
      "op": "null", 
      "name": "stage2_unit1_bn1_beta", 
      "inputs": []
    }, 
    {
      "op": "tvm_op", 
      "name": "fused_add_135", 
      "attrs": {
        "flatten_data": "0", 
        "func_name": "fused_add_13", 
        "num_inputs": "2", 
        "num_outputs": "1"
      }, 
      "inputs": [[152, 0, 0], [153, 0, 0]]
    }, 
    {
      "op": "tvm_op", 
      "name": "fused_expand_dims_215", 
      "attrs": {
        "flatten_data": "0", 
        "func_name": "fused_expand_dims_2", 
        "num_inputs": "1", 
        "num_outputs": "1"
      }, 
      "inputs": [[154, 0, 0]]
    }, 
    {
      "op": "tvm_op", 
      "name": "fused_expand_dims_216", 
      "attrs": {
        "flatten_data": "0", 
        "func_name": "fused_expand_dims_2", 
        "num_inputs": "1", 
        "num_outputs": "1"
      }, 
      "inputs": [[151, 0, 0]]
    }, 
    {
      "op": "tvm_op", 
      "name": "fused_squeeze_15", 
      "attrs": {
        "flatten_data": "0", 
        "func_name": "fused_squeeze_1", 
        "num_inputs": "1", 
        "num_outputs": "1"
      }, 
      "inputs": [[156, 0, 0]]
    }, 
    {
      "op": "tvm_op", 
      "name": "fused_expand_dims_217", 
      "attrs": {
        "flatten_data": "0", 
        "func_name": "fused_expand_dims_2", 
        "num_inputs": "1", 
        "num_outputs": "1"
      }, 
      "inputs": [[157, 0, 0]]
    }, 
    {
      "op": "tvm_op", 
      "name": "fused_divide_32", 
      "attrs": {
        "flatten_data": "0", 
        "func_name": "fused_divide_3", 
        "num_inputs": "2", 
        "num_outputs": "1"
      }, 
      "inputs": [[155, 0, 0], [158, 0, 0]]
    }, 
    {
      "op": "tvm_op", 
      "name": "fused_add_64", 
      "attrs": {
        "flatten_data": "0", 
        "func_name": "fused_add_6", 
        "num_inputs": "2", 
        "num_outputs": "1"
      }, 
      "inputs": [[141, 0, 0], [159, 0, 0]]
    }, 
    {
      "op": "tvm_op", 
      "name": "fused_nn_relu_35", 
      "attrs": {
        "flatten_data": "0", 
        "func_name": "fused_nn_relu_3", 
        "num_inputs": "1", 
        "num_outputs": "1"
      }, 
      "inputs": [[160, 0, 0]]
    }, 
    {
      "op": "null", 
      "name": "stage2_unit1_conv1_weight", 
      "inputs": []
    }, 
    {
      "op": "null", 
      "name": "constant14", 
      "inputs": []
    }, 
    {
      "op": "null", 
      "name": "stage2_unit1_bn2_moving_var", 
      "inputs": []
    }, 
    {
      "op": "null", 
      "name": "constant15", 
      "inputs": []
    }, 
    {
      "op": "tvm_op", 
      "name": "fused_add_14", 
      "attrs": {
        "flatten_data": "0", 
        "func_name": "fused_add_14", 
        "num_inputs": "2", 
        "num_outputs": "1"
      }, 
      "inputs": [[164, 0, 0], [165, 0, 0]]
    }, 
    {
      "op": "tvm_op", 
      "name": "fused_sqrt_2", 
      "attrs": {
        "flatten_data": "0", 
        "func_name": "fused_sqrt_2", 
        "num_inputs": "1", 
        "num_outputs": "1"
      }, 
      "inputs": [[166, 0, 0]]
    }, 
    {
      "op": "tvm_op", 
      "name": "fused_divide_4", 
      "attrs": {
        "flatten_data": "0", 
        "func_name": "fused_divide_4", 
        "num_inputs": "2", 
        "num_outputs": "1"
      }, 
      "inputs": [[163, 0, 0], [167, 0, 0]]
    }, 
    {
      "op": "null", 
      "name": "stage2_unit1_bn2_gamma", 
      "inputs": []
    }, 
    {
      "op": "tvm_op", 
      "name": "fused_multiply_10", 
      "attrs": {
        "flatten_data": "0", 
        "func_name": "fused_multiply_10", 
        "num_inputs": "2", 
        "num_outputs": "1"
      }, 
      "inputs": [[168, 0, 0], [169, 0, 0]]
    }, 
    {
      "op": "tvm_op", 
      "name": "fused_expand_dims_4", 
      "attrs": {
        "flatten_data": "0", 
        "func_name": "fused_expand_dims_4", 
        "num_inputs": "1", 
        "num_outputs": "1"
      }, 
      "inputs": [[170, 0, 0]]
    }, 
    {
      "op": "tvm_op", 
      "name": "fused_squeeze_2", 
      "attrs": {
        "flatten_data": "0", 
        "func_name": "fused_squeeze_2", 
        "num_inputs": "1", 
        "num_outputs": "1"
      }, 
      "inputs": [[171, 0, 0]]
    }, 
    {
      "op": "tvm_op", 
      "name": "fused_expand_dims_3", 
      "attrs": {
        "flatten_data": "0", 
        "func_name": "fused_expand_dims_3", 
        "num_inputs": "1", 
        "num_outputs": "1"
      }, 
      "inputs": [[172, 0, 0]]
    }, 
    {
      "op": "tvm_op", 
      "name": "fused_multiply_9", 
      "attrs": {
        "flatten_data": "0", 
        "func_name": "fused_multiply_9", 
        "num_inputs": "2", 
        "num_outputs": "1"
      }, 
      "inputs": [[162, 0, 0], [173, 0, 0]]
    }, 
    {
      "op": "tvm_op", 
      "name": "fused_expand_dims_218", 
      "attrs": {
        "flatten_data": "0", 
        "func_name": "fused_expand_dims_2", 
        "num_inputs": "1", 
        "num_outputs": "1"
      }, 
      "inputs": [[157, 0, 0]]
    }, 
    {
      "op": "tvm_op", 
      "name": "fused_multiply_8", 
      "attrs": {
        "flatten_data": "0", 
        "func_name": "fused_multiply_8", 
        "num_inputs": "2", 
        "num_outputs": "1"
      }, 
      "inputs": [[174, 0, 0], [175, 0, 0]]
    }, 
    {
      "op": "tvm_op", 
      "name": "fused_nn_conv2d_5", 
      "attrs": {
        "flatten_data": "0", 
        "func_name": "fused_nn_conv2d_5", 
        "num_inputs": "2", 
        "num_outputs": "1"
      }, 
      "inputs": [[161, 0, 0], [176, 0, 0]]
    }, 
    {
      "op": "null", 
      "name": "stage2_unit1_bn2_moving_mean", 
      "inputs": []
    }, 
    {
      "op": "tvm_op", 
      "name": "fused_negative_2", 
      "attrs": {
        "flatten_data": "0", 
        "func_name": "fused_negative_2", 
        "num_inputs": "1", 
        "num_outputs": "1"
      }, 
      "inputs": [[178, 0, 0]]
    }, 
    {
      "op": "tvm_op", 
      "name": "fused_multiply_101", 
      "attrs": {
        "flatten_data": "0", 
        "func_name": "fused_multiply_10", 
        "num_inputs": "2", 
        "num_outputs": "1"
      }, 
      "inputs": [[179, 0, 0], [170, 0, 0]]
    }, 
    {
      "op": "null", 
      "name": "stage2_unit1_bn2_beta", 
      "inputs": []
    }, 
    {
      "op": "tvm_op", 
      "name": "fused_add_15", 
      "attrs": {
        "flatten_data": "0", 
        "func_name": "fused_add_15", 
        "num_inputs": "2", 
        "num_outputs": "1"
      }, 
      "inputs": [[180, 0, 0], [181, 0, 0]]
    }, 
    {
      "op": "tvm_op", 
      "name": "fused_expand_dims_41", 
      "attrs": {
        "flatten_data": "0", 
        "func_name": "fused_expand_dims_4", 
        "num_inputs": "1", 
        "num_outputs": "1"
      }, 
      "inputs": [[182, 0, 0]]
    }, 
    {
      "op": "tvm_op", 
      "name": "fused_add_4", 
      "attrs": {
        "flatten_data": "0", 
        "func_name": "fused_add_4", 
        "num_inputs": "2", 
        "num_outputs": "1"
      }, 
      "inputs": [[177, 0, 0], [183, 0, 0]]
    }, 
    {
      "op": "tvm_op", 
      "name": "fused_nn_relu_2", 
      "attrs": {
        "flatten_data": "0", 
        "func_name": "fused_nn_relu_2", 
        "num_inputs": "1", 
        "num_outputs": "1"
      }, 
      "inputs": [[184, 0, 0]]
    }, 
    {
      "op": "null", 
      "name": "stage2_unit1_conv2_weight", 
      "inputs": []
    }, 
    {
      "op": "tvm_op", 
      "name": "fused_nn_conv2d_4", 
      "attrs": {
        "flatten_data": "0", 
        "func_name": "fused_nn_conv2d_4", 
        "num_inputs": "2", 
        "num_outputs": "1"
      }, 
      "inputs": [[185, 0, 0], [186, 0, 0]]
    }, 
    {
      "op": "tvm_op", 
      "name": "fused_nn_relu_36", 
      "attrs": {
        "flatten_data": "0", 
        "func_name": "fused_nn_relu_3", 
        "num_inputs": "1", 
        "num_outputs": "1"
      }, 
      "inputs": [[160, 0, 0]]
    }, 
    {
      "op": "null", 
      "name": "stage2_unit1_sc_weight", 
      "inputs": []
    }, 
    {
      "op": "tvm_op", 
      "name": "fused_expand_dims_219", 
      "attrs": {
        "flatten_data": "0", 
        "func_name": "fused_expand_dims_2", 
        "num_inputs": "1", 
        "num_outputs": "1"
      }, 
      "inputs": [[157, 0, 0]]
    }, 
    {
      "op": "tvm_op", 
      "name": "fused_multiply_11", 
      "attrs": {
        "flatten_data": "0", 
        "func_name": "fused_multiply_11", 
        "num_inputs": "2", 
        "num_outputs": "1"
      }, 
      "inputs": [[189, 0, 0], [190, 0, 0]]
    }, 
    {
      "op": "tvm_op", 
      "name": "fused_nn_conv2d_9", 
      "attrs": {
        "flatten_data": "0", 
        "func_name": "fused_nn_conv2d_9", 
        "num_inputs": "2", 
        "num_outputs": "1"
      }, 
      "inputs": [[188, 0, 0], [191, 0, 0]]
    }, 
    {
      "op": "tvm_op", 
      "name": "fused_add_5", 
      "attrs": {
        "flatten_data": "0", 
        "func_name": "fused_add_5", 
        "num_inputs": "2", 
        "num_outputs": "1"
      }, 
      "inputs": [[187, 0, 0], [192, 0, 0]]
    }, 
    {
      "op": "null", 
      "name": "stage2_unit2_bn1_moving_mean", 
      "inputs": []
    }, 
    {
      "op": "tvm_op", 
      "name": "fused_negative_21", 
      "attrs": {
        "flatten_data": "0", 
        "func_name": "fused_negative_2", 
        "num_inputs": "1", 
        "num_outputs": "1"
      }, 
      "inputs": [[194, 0, 0]]
    }, 
    {
      "op": "null", 
      "name": "constant16", 
      "inputs": []
    }, 
    {
      "op": "null", 
      "name": "stage2_unit2_bn1_moving_var", 
      "inputs": []
    }, 
    {
      "op": "null", 
      "name": "constant17", 
      "inputs": []
    }, 
    {
      "op": "tvm_op", 
      "name": "fused_add_141", 
      "attrs": {
        "flatten_data": "0", 
        "func_name": "fused_add_14", 
        "num_inputs": "2", 
        "num_outputs": "1"
      }, 
      "inputs": [[197, 0, 0], [198, 0, 0]]
    }, 
    {
      "op": "tvm_op", 
      "name": "fused_sqrt_21", 
      "attrs": {
        "flatten_data": "0", 
        "func_name": "fused_sqrt_2", 
        "num_inputs": "1", 
        "num_outputs": "1"
      }, 
      "inputs": [[199, 0, 0]]
    }, 
    {
      "op": "tvm_op", 
      "name": "fused_divide_41", 
      "attrs": {
        "flatten_data": "0", 
        "func_name": "fused_divide_4", 
        "num_inputs": "2", 
        "num_outputs": "1"
      }, 
      "inputs": [[196, 0, 0], [200, 0, 0]]
    }, 
    {
      "op": "null", 
      "name": "stage2_unit2_bn1_gamma", 
      "inputs": []
    }, 
    {
      "op": "tvm_op", 
      "name": "fused_multiply_102", 
      "attrs": {
        "flatten_data": "0", 
        "func_name": "fused_multiply_10", 
        "num_inputs": "2", 
        "num_outputs": "1"
      }, 
      "inputs": [[201, 0, 0], [202, 0, 0]]
    }, 
    {
      "op": "tvm_op", 
      "name": "fused_multiply_103", 
      "attrs": {
        "flatten_data": "0", 
        "func_name": "fused_multiply_10", 
        "num_inputs": "2", 
        "num_outputs": "1"
      }, 
      "inputs": [[195, 0, 0], [203, 0, 0]]
    }, 
    {
      "op": "null", 
      "name": "stage2_unit2_bn1_beta", 
      "inputs": []
    }, 
    {
      "op": "tvm_op", 
      "name": "fused_add_151", 
      "attrs": {
        "flatten_data": "0", 
        "func_name": "fused_add_15", 
        "num_inputs": "2", 
        "num_outputs": "1"
      }, 
      "inputs": [[204, 0, 0], [205, 0, 0]]
    }, 
    {
      "op": "tvm_op", 
      "name": "fused_expand_dims_42", 
      "attrs": {
        "flatten_data": "0", 
        "func_name": "fused_expand_dims_4", 
        "num_inputs": "1", 
        "num_outputs": "1"
      }, 
      "inputs": [[206, 0, 0]]
    }, 
    {
      "op": "tvm_op", 
      "name": "fused_expand_dims_43", 
      "attrs": {
        "flatten_data": "0", 
        "func_name": "fused_expand_dims_4", 
        "num_inputs": "1", 
        "num_outputs": "1"
      }, 
      "inputs": [[203, 0, 0]]
    }, 
    {
      "op": "tvm_op", 
      "name": "fused_squeeze_21", 
      "attrs": {
        "flatten_data": "0", 
        "func_name": "fused_squeeze_2", 
        "num_inputs": "1", 
        "num_outputs": "1"
      }, 
      "inputs": [[208, 0, 0]]
    }, 
    {
      "op": "tvm_op", 
      "name": "fused_expand_dims_44", 
      "attrs": {
        "flatten_data": "0", 
        "func_name": "fused_expand_dims_4", 
        "num_inputs": "1", 
        "num_outputs": "1"
      }, 
      "inputs": [[209, 0, 0]]
    }, 
    {
      "op": "tvm_op", 
      "name": "fused_divide_5", 
      "attrs": {
        "flatten_data": "0", 
        "func_name": "fused_divide_5", 
        "num_inputs": "2", 
        "num_outputs": "1"
      }, 
      "inputs": [[207, 0, 0], [210, 0, 0]]
    }, 
    {
      "op": "tvm_op", 
      "name": "fused_add_41", 
      "attrs": {
        "flatten_data": "0", 
        "func_name": "fused_add_4", 
        "num_inputs": "2", 
        "num_outputs": "1"
      }, 
      "inputs": [[193, 0, 0], [211, 0, 0]]
    }, 
    {
      "op": "tvm_op", 
      "name": "fused_nn_relu_21", 
      "attrs": {
        "flatten_data": "0", 
        "func_name": "fused_nn_relu_2", 
        "num_inputs": "1", 
        "num_outputs": "1"
      }, 
      "inputs": [[212, 0, 0]]
    }, 
    {
      "op": "null", 
      "name": "stage2_unit2_conv1_weight", 
      "inputs": []
    }, 
    {
      "op": "null", 
      "name": "constant18", 
      "inputs": []
    }, 
    {
      "op": "null", 
      "name": "stage2_unit2_bn2_moving_var", 
      "inputs": []
    }, 
    {
      "op": "null", 
      "name": "constant19", 
      "inputs": []
    }, 
    {
      "op": "tvm_op", 
      "name": "fused_add_142", 
      "attrs": {
        "flatten_data": "0", 
        "func_name": "fused_add_14", 
        "num_inputs": "2", 
        "num_outputs": "1"
      }, 
      "inputs": [[216, 0, 0], [217, 0, 0]]
    }, 
    {
      "op": "tvm_op", 
      "name": "fused_sqrt_22", 
      "attrs": {
        "flatten_data": "0", 
        "func_name": "fused_sqrt_2", 
        "num_inputs": "1", 
        "num_outputs": "1"
      }, 
      "inputs": [[218, 0, 0]]
    }, 
    {
      "op": "tvm_op", 
      "name": "fused_divide_42", 
      "attrs": {
        "flatten_data": "0", 
        "func_name": "fused_divide_4", 
        "num_inputs": "2", 
        "num_outputs": "1"
      }, 
      "inputs": [[215, 0, 0], [219, 0, 0]]
    }, 
    {
      "op": "null", 
      "name": "stage2_unit2_bn2_gamma", 
      "inputs": []
    }, 
    {
      "op": "tvm_op", 
      "name": "fused_multiply_104", 
      "attrs": {
        "flatten_data": "0", 
        "func_name": "fused_multiply_10", 
        "num_inputs": "2", 
        "num_outputs": "1"
      }, 
      "inputs": [[220, 0, 0], [221, 0, 0]]
    }, 
    {
      "op": "tvm_op", 
      "name": "fused_expand_dims_45", 
      "attrs": {
        "flatten_data": "0", 
        "func_name": "fused_expand_dims_4", 
        "num_inputs": "1", 
        "num_outputs": "1"
      }, 
      "inputs": [[222, 0, 0]]
    }, 
    {
      "op": "tvm_op", 
      "name": "fused_squeeze_22", 
      "attrs": {
        "flatten_data": "0", 
        "func_name": "fused_squeeze_2", 
        "num_inputs": "1", 
        "num_outputs": "1"
      }, 
      "inputs": [[223, 0, 0]]
    }, 
    {
      "op": "tvm_op", 
      "name": "fused_expand_dims_31", 
      "attrs": {
        "flatten_data": "0", 
        "func_name": "fused_expand_dims_3", 
        "num_inputs": "1", 
        "num_outputs": "1"
      }, 
      "inputs": [[224, 0, 0]]
    }, 
    {
      "op": "tvm_op", 
      "name": "fused_multiply_13", 
      "attrs": {
        "flatten_data": "0", 
        "func_name": "fused_multiply_13", 
        "num_inputs": "2", 
        "num_outputs": "1"
      }, 
      "inputs": [[214, 0, 0], [225, 0, 0]]
    }, 
    {
      "op": "tvm_op", 
      "name": "fused_expand_dims_46", 
      "attrs": {
        "flatten_data": "0", 
        "func_name": "fused_expand_dims_4", 
        "num_inputs": "1", 
        "num_outputs": "1"
      }, 
      "inputs": [[209, 0, 0]]
    }, 
    {
      "op": "tvm_op", 
      "name": "fused_multiply_12", 
      "attrs": {
        "flatten_data": "0", 
        "func_name": "fused_multiply_12", 
        "num_inputs": "2", 
        "num_outputs": "1"
      }, 
      "inputs": [[226, 0, 0], [227, 0, 0]]
    }, 
    {
      "op": "tvm_op", 
      "name": "fused_nn_conv2d_41", 
      "attrs": {
        "flatten_data": "0", 
        "func_name": "fused_nn_conv2d_4", 
        "num_inputs": "2", 
        "num_outputs": "1"
      }, 
      "inputs": [[213, 0, 0], [228, 0, 0]]
    }, 
    {
      "op": "null", 
      "name": "stage2_unit2_bn2_moving_mean", 
      "inputs": []
    }, 
    {
      "op": "tvm_op", 
      "name": "fused_negative_22", 
      "attrs": {
        "flatten_data": "0", 
        "func_name": "fused_negative_2", 
        "num_inputs": "1", 
        "num_outputs": "1"
      }, 
      "inputs": [[230, 0, 0]]
    }, 
    {
      "op": "tvm_op", 
      "name": "fused_multiply_105", 
      "attrs": {
        "flatten_data": "0", 
        "func_name": "fused_multiply_10", 
        "num_inputs": "2", 
        "num_outputs": "1"
      }, 
      "inputs": [[231, 0, 0], [222, 0, 0]]
    }, 
    {
      "op": "null", 
      "name": "stage2_unit2_bn2_beta", 
      "inputs": []
    }, 
    {
      "op": "tvm_op", 
      "name": "fused_add_152", 
      "attrs": {
        "flatten_data": "0", 
        "func_name": "fused_add_15", 
        "num_inputs": "2", 
        "num_outputs": "1"
      }, 
      "inputs": [[232, 0, 0], [233, 0, 0]]
    }, 
    {
      "op": "tvm_op", 
      "name": "fused_expand_dims_47", 
      "attrs": {
        "flatten_data": "0", 
        "func_name": "fused_expand_dims_4", 
        "num_inputs": "1", 
        "num_outputs": "1"
      }, 
      "inputs": [[234, 0, 0]]
    }, 
    {
      "op": "tvm_op", 
      "name": "fused_add_42", 
      "attrs": {
        "flatten_data": "0", 
        "func_name": "fused_add_4", 
        "num_inputs": "2", 
        "num_outputs": "1"
      }, 
      "inputs": [[229, 0, 0], [235, 0, 0]]
    }, 
    {
      "op": "tvm_op", 
      "name": "fused_nn_relu_22", 
      "attrs": {
        "flatten_data": "0", 
        "func_name": "fused_nn_relu_2", 
        "num_inputs": "1", 
        "num_outputs": "1"
      }, 
      "inputs": [[236, 0, 0]]
    }, 
    {
      "op": "null", 
      "name": "stage2_unit2_conv2_weight", 
      "inputs": []
    }, 
    {
      "op": "tvm_op", 
      "name": "fused_nn_conv2d_42", 
      "attrs": {
        "flatten_data": "0", 
        "func_name": "fused_nn_conv2d_4", 
        "num_inputs": "2", 
        "num_outputs": "1"
      }, 
      "inputs": [[237, 0, 0], [238, 0, 0]]
    }, 
    {
      "op": "tvm_op", 
      "name": "fused_add_51", 
      "attrs": {
        "flatten_data": "0", 
        "func_name": "fused_add_5", 
        "num_inputs": "2", 
        "num_outputs": "1"
      }, 
      "inputs": [[239, 0, 0], [193, 0, 0]]
    }, 
    {
      "op": "null", 
      "name": "stage3_unit1_bn1_moving_mean", 
      "inputs": []
    }, 
    {
      "op": "tvm_op", 
      "name": "fused_negative_23", 
      "attrs": {
        "flatten_data": "0", 
        "func_name": "fused_negative_2", 
        "num_inputs": "1", 
        "num_outputs": "1"
      }, 
      "inputs": [[241, 0, 0]]
    }, 
    {
      "op": "null", 
      "name": "constant20", 
      "inputs": []
    }, 
    {
      "op": "null", 
      "name": "stage3_unit1_bn1_moving_var", 
      "inputs": []
    }, 
    {
      "op": "null", 
      "name": "constant21", 
      "inputs": []
    }, 
    {
      "op": "tvm_op", 
      "name": "fused_add_143", 
      "attrs": {
        "flatten_data": "0", 
        "func_name": "fused_add_14", 
        "num_inputs": "2", 
        "num_outputs": "1"
      }, 
      "inputs": [[244, 0, 0], [245, 0, 0]]
    }, 
    {
      "op": "tvm_op", 
      "name": "fused_sqrt_23", 
      "attrs": {
        "flatten_data": "0", 
        "func_name": "fused_sqrt_2", 
        "num_inputs": "1", 
        "num_outputs": "1"
      }, 
      "inputs": [[246, 0, 0]]
    }, 
    {
      "op": "tvm_op", 
      "name": "fused_divide_43", 
      "attrs": {
        "flatten_data": "0", 
        "func_name": "fused_divide_4", 
        "num_inputs": "2", 
        "num_outputs": "1"
      }, 
      "inputs": [[243, 0, 0], [247, 0, 0]]
    }, 
    {
      "op": "null", 
      "name": "stage3_unit1_bn1_gamma", 
      "inputs": []
    }, 
    {
      "op": "tvm_op", 
      "name": "fused_multiply_106", 
      "attrs": {
        "flatten_data": "0", 
        "func_name": "fused_multiply_10", 
        "num_inputs": "2", 
        "num_outputs": "1"
      }, 
      "inputs": [[248, 0, 0], [249, 0, 0]]
    }, 
    {
      "op": "tvm_op", 
      "name": "fused_multiply_107", 
      "attrs": {
        "flatten_data": "0", 
        "func_name": "fused_multiply_10", 
        "num_inputs": "2", 
        "num_outputs": "1"
      }, 
      "inputs": [[242, 0, 0], [250, 0, 0]]
    }, 
    {
      "op": "null", 
      "name": "stage3_unit1_bn1_beta", 
      "inputs": []
    }, 
    {
      "op": "tvm_op", 
      "name": "fused_add_153", 
      "attrs": {
        "flatten_data": "0", 
        "func_name": "fused_add_15", 
        "num_inputs": "2", 
        "num_outputs": "1"
      }, 
      "inputs": [[251, 0, 0], [252, 0, 0]]
    }, 
    {
      "op": "tvm_op", 
      "name": "fused_expand_dims_48", 
      "attrs": {
        "flatten_data": "0", 
        "func_name": "fused_expand_dims_4", 
        "num_inputs": "1", 
        "num_outputs": "1"
      }, 
      "inputs": [[253, 0, 0]]
    }, 
    {
      "op": "tvm_op", 
      "name": "fused_expand_dims_49", 
      "attrs": {
        "flatten_data": "0", 
        "func_name": "fused_expand_dims_4", 
        "num_inputs": "1", 
        "num_outputs": "1"
      }, 
      "inputs": [[250, 0, 0]]
    }, 
    {
      "op": "tvm_op", 
      "name": "fused_squeeze_23", 
      "attrs": {
        "flatten_data": "0", 
        "func_name": "fused_squeeze_2", 
        "num_inputs": "1", 
        "num_outputs": "1"
      }, 
      "inputs": [[255, 0, 0]]
    }, 
    {
      "op": "tvm_op", 
      "name": "fused_expand_dims_410", 
      "attrs": {
        "flatten_data": "0", 
        "func_name": "fused_expand_dims_4", 
        "num_inputs": "1", 
        "num_outputs": "1"
      }, 
      "inputs": [[256, 0, 0]]
    }, 
    {
      "op": "tvm_op", 
      "name": "fused_divide_51", 
      "attrs": {
        "flatten_data": "0", 
        "func_name": "fused_divide_5", 
        "num_inputs": "2", 
        "num_outputs": "1"
      }, 
      "inputs": [[254, 0, 0], [257, 0, 0]]
    }, 
    {
      "op": "tvm_op", 
      "name": "fused_add_43", 
      "attrs": {
        "flatten_data": "0", 
        "func_name": "fused_add_4", 
        "num_inputs": "2", 
        "num_outputs": "1"
      }, 
      "inputs": [[240, 0, 0], [258, 0, 0]]
    }, 
    {
      "op": "tvm_op", 
      "name": "fused_nn_relu_23", 
      "attrs": {
        "flatten_data": "0", 
        "func_name": "fused_nn_relu_2", 
        "num_inputs": "1", 
        "num_outputs": "1"
      }, 
      "inputs": [[259, 0, 0]]
    }, 
    {
      "op": "null", 
      "name": "stage3_unit1_conv1_weight", 
      "inputs": []
    }, 
    {
      "op": "null", 
      "name": "constant22", 
      "inputs": []
    }, 
    {
      "op": "null", 
      "name": "stage3_unit1_bn2_moving_var", 
      "inputs": []
    }, 
    {
      "op": "null", 
      "name": "constant23", 
      "inputs": []
    }, 
    {
      "op": "tvm_op", 
      "name": "fused_add_16", 
      "attrs": {
        "flatten_data": "0", 
        "func_name": "fused_add_16", 
        "num_inputs": "2", 
        "num_outputs": "1"
      }, 
      "inputs": [[263, 0, 0], [264, 0, 0]]
    }, 
    {
      "op": "tvm_op", 
      "name": "fused_sqrt_3", 
      "attrs": {
        "flatten_data": "0", 
        "func_name": "fused_sqrt_3", 
        "num_inputs": "1", 
        "num_outputs": "1"
      }, 
      "inputs": [[265, 0, 0]]
    }, 
    {
      "op": "tvm_op", 
      "name": "fused_divide_6", 
      "attrs": {
        "flatten_data": "0", 
        "func_name": "fused_divide_6", 
        "num_inputs": "2", 
        "num_outputs": "1"
      }, 
      "inputs": [[262, 0, 0], [266, 0, 0]]
    }, 
    {
      "op": "null", 
      "name": "stage3_unit1_bn2_gamma", 
      "inputs": []
    }, 
    {
      "op": "tvm_op", 
      "name": "fused_multiply_16", 
      "attrs": {
        "flatten_data": "0", 
        "func_name": "fused_multiply_16", 
        "num_inputs": "2", 
        "num_outputs": "1"
      }, 
      "inputs": [[267, 0, 0], [268, 0, 0]]
    }, 
    {
      "op": "tvm_op", 
      "name": "fused_expand_dims_6", 
      "attrs": {
        "flatten_data": "0", 
        "func_name": "fused_expand_dims_6", 
        "num_inputs": "1", 
        "num_outputs": "1"
      }, 
      "inputs": [[269, 0, 0]]
    }, 
    {
      "op": "tvm_op", 
      "name": "fused_squeeze_3", 
      "attrs": {
        "flatten_data": "0", 
        "func_name": "fused_squeeze_3", 
        "num_inputs": "1", 
        "num_outputs": "1"
      }, 
      "inputs": [[270, 0, 0]]
    }, 
    {
      "op": "tvm_op", 
      "name": "fused_expand_dims_5", 
      "attrs": {
        "flatten_data": "0", 
        "func_name": "fused_expand_dims_5", 
        "num_inputs": "1", 
        "num_outputs": "1"
      }, 
      "inputs": [[271, 0, 0]]
    }, 
    {
      "op": "tvm_op", 
      "name": "fused_multiply_15", 
      "attrs": {
        "flatten_data": "0", 
        "func_name": "fused_multiply_15", 
        "num_inputs": "2", 
        "num_outputs": "1"
      }, 
      "inputs": [[261, 0, 0], [272, 0, 0]]
    }, 
    {
      "op": "tvm_op", 
      "name": "fused_expand_dims_411", 
      "attrs": {
        "flatten_data": "0", 
        "func_name": "fused_expand_dims_4", 
        "num_inputs": "1", 
        "num_outputs": "1"
      }, 
      "inputs": [[256, 0, 0]]
    }, 
    {
      "op": "tvm_op", 
      "name": "fused_multiply_14", 
      "attrs": {
        "flatten_data": "0", 
        "func_name": "fused_multiply_14", 
        "num_inputs": "2", 
        "num_outputs": "1"
      }, 
      "inputs": [[273, 0, 0], [274, 0, 0]]
    }, 
    {
      "op": "tvm_op", 
      "name": "fused_nn_conv2d_3", 
      "attrs": {
        "flatten_data": "0", 
        "func_name": "fused_nn_conv2d_3", 
        "num_inputs": "2", 
        "num_outputs": "1"
      }, 
      "inputs": [[260, 0, 0], [275, 0, 0]]
    }, 
    {
      "op": "null", 
      "name": "stage3_unit1_bn2_moving_mean", 
      "inputs": []
    }, 
    {
      "op": "tvm_op", 
      "name": "fused_negative_3", 
      "attrs": {
        "flatten_data": "0", 
        "func_name": "fused_negative_3", 
        "num_inputs": "1", 
        "num_outputs": "1"
      }, 
      "inputs": [[277, 0, 0]]
    }, 
    {
      "op": "tvm_op", 
      "name": "fused_multiply_161", 
      "attrs": {
        "flatten_data": "0", 
        "func_name": "fused_multiply_16", 
        "num_inputs": "2", 
        "num_outputs": "1"
      }, 
      "inputs": [[278, 0, 0], [269, 0, 0]]
    }, 
    {
      "op": "null", 
      "name": "stage3_unit1_bn2_beta", 
      "inputs": []
    }, 
    {
      "op": "tvm_op", 
      "name": "fused_add_17", 
      "attrs": {
        "flatten_data": "0", 
        "func_name": "fused_add_17", 
        "num_inputs": "2", 
        "num_outputs": "1"
      }, 
      "inputs": [[279, 0, 0], [280, 0, 0]]
    }, 
    {
      "op": "tvm_op", 
      "name": "fused_expand_dims_61", 
      "attrs": {
        "flatten_data": "0", 
        "func_name": "fused_expand_dims_6", 
        "num_inputs": "1", 
        "num_outputs": "1"
      }, 
      "inputs": [[281, 0, 0]]
    }, 
    {
      "op": "tvm_op", 
      "name": "fused_add_2", 
      "attrs": {
        "flatten_data": "0", 
        "func_name": "fused_add_2", 
        "num_inputs": "2", 
        "num_outputs": "1"
      }, 
      "inputs": [[276, 0, 0], [282, 0, 0]]
    }, 
    {
      "op": "tvm_op", 
      "name": "fused_nn_relu_1", 
      "attrs": {
        "flatten_data": "0", 
        "func_name": "fused_nn_relu_1", 
        "num_inputs": "1", 
        "num_outputs": "1"
      }, 
      "inputs": [[283, 0, 0]]
    }, 
    {
      "op": "null", 
      "name": "stage3_unit1_conv2_weight", 
      "inputs": []
    }, 
    {
      "op": "tvm_op", 
      "name": "fused_nn_conv2d_2", 
      "attrs": {
        "flatten_data": "0", 
        "func_name": "fused_nn_conv2d_2", 
        "num_inputs": "2", 
        "num_outputs": "1"
      }, 
      "inputs": [[284, 0, 0], [285, 0, 0]]
    }, 
    {
      "op": "tvm_op", 
      "name": "fused_nn_relu_24", 
      "attrs": {
        "flatten_data": "0", 
        "func_name": "fused_nn_relu_2", 
        "num_inputs": "1", 
        "num_outputs": "1"
      }, 
      "inputs": [[259, 0, 0]]
    }, 
    {
      "op": "null", 
      "name": "stage3_unit1_sc_weight", 
      "inputs": []
    }, 
    {
      "op": "tvm_op", 
      "name": "fused_expand_dims_412", 
      "attrs": {
        "flatten_data": "0", 
        "func_name": "fused_expand_dims_4", 
        "num_inputs": "1", 
        "num_outputs": "1"
      }, 
      "inputs": [[256, 0, 0]]
    }, 
    {
      "op": "tvm_op", 
      "name": "fused_multiply_17", 
      "attrs": {
        "flatten_data": "0", 
        "func_name": "fused_multiply_17", 
        "num_inputs": "2", 
        "num_outputs": "1"
      }, 
      "inputs": [[288, 0, 0], [289, 0, 0]]
    }, 
    {
      "op": "tvm_op", 
      "name": "fused_nn_conv2d_10", 
      "attrs": {
        "flatten_data": "0", 
        "func_name": "fused_nn_conv2d_10", 
        "num_inputs": "2", 
        "num_outputs": "1"
      }, 
      "inputs": [[287, 0, 0], [290, 0, 0]]
    }, 
    {
      "op": "tvm_op", 
      "name": "fused_add_3", 
      "attrs": {
        "flatten_data": "0", 
        "func_name": "fused_add_3", 
        "num_inputs": "2", 
        "num_outputs": "1"
      }, 
      "inputs": [[286, 0, 0], [291, 0, 0]]
    }, 
    {
      "op": "null", 
      "name": "stage3_unit2_bn1_moving_mean", 
      "inputs": []
    }, 
    {
      "op": "tvm_op", 
      "name": "fused_negative_31", 
      "attrs": {
        "flatten_data": "0", 
        "func_name": "fused_negative_3", 
        "num_inputs": "1", 
        "num_outputs": "1"
      }, 
      "inputs": [[293, 0, 0]]
    }, 
    {
      "op": "null", 
      "name": "constant24", 
      "inputs": []
    }, 
    {
      "op": "null", 
      "name": "stage3_unit2_bn1_moving_var", 
      "inputs": []
    }, 
    {
      "op": "null", 
      "name": "constant25", 
      "inputs": []
    }, 
    {
      "op": "tvm_op", 
      "name": "fused_add_161", 
      "attrs": {
        "flatten_data": "0", 
        "func_name": "fused_add_16", 
        "num_inputs": "2", 
        "num_outputs": "1"
      }, 
      "inputs": [[296, 0, 0], [297, 0, 0]]
    }, 
    {
      "op": "tvm_op", 
      "name": "fused_sqrt_31", 
      "attrs": {
        "flatten_data": "0", 
        "func_name": "fused_sqrt_3", 
        "num_inputs": "1", 
        "num_outputs": "1"
      }, 
      "inputs": [[298, 0, 0]]
    }, 
    {
      "op": "tvm_op", 
      "name": "fused_divide_61", 
      "attrs": {
        "flatten_data": "0", 
        "func_name": "fused_divide_6", 
        "num_inputs": "2", 
        "num_outputs": "1"
      }, 
      "inputs": [[295, 0, 0], [299, 0, 0]]
    }, 
    {
      "op": "null", 
      "name": "stage3_unit2_bn1_gamma", 
      "inputs": []
    }, 
    {
      "op": "tvm_op", 
      "name": "fused_multiply_162", 
      "attrs": {
        "flatten_data": "0", 
        "func_name": "fused_multiply_16", 
        "num_inputs": "2", 
        "num_outputs": "1"
      }, 
      "inputs": [[300, 0, 0], [301, 0, 0]]
    }, 
    {
      "op": "tvm_op", 
      "name": "fused_multiply_163", 
      "attrs": {
        "flatten_data": "0", 
        "func_name": "fused_multiply_16", 
        "num_inputs": "2", 
        "num_outputs": "1"
      }, 
      "inputs": [[294, 0, 0], [302, 0, 0]]
    }, 
    {
      "op": "null", 
      "name": "stage3_unit2_bn1_beta", 
      "inputs": []
    }, 
    {
      "op": "tvm_op", 
      "name": "fused_add_171", 
      "attrs": {
        "flatten_data": "0", 
        "func_name": "fused_add_17", 
        "num_inputs": "2", 
        "num_outputs": "1"
      }, 
      "inputs": [[303, 0, 0], [304, 0, 0]]
    }, 
    {
      "op": "tvm_op", 
      "name": "fused_expand_dims_62", 
      "attrs": {
        "flatten_data": "0", 
        "func_name": "fused_expand_dims_6", 
        "num_inputs": "1", 
        "num_outputs": "1"
      }, 
      "inputs": [[305, 0, 0]]
    }, 
    {
      "op": "tvm_op", 
      "name": "fused_expand_dims_63", 
      "attrs": {
        "flatten_data": "0", 
        "func_name": "fused_expand_dims_6", 
        "num_inputs": "1", 
        "num_outputs": "1"
      }, 
      "inputs": [[302, 0, 0]]
    }, 
    {
      "op": "tvm_op", 
      "name": "fused_squeeze_31", 
      "attrs": {
        "flatten_data": "0", 
        "func_name": "fused_squeeze_3", 
        "num_inputs": "1", 
        "num_outputs": "1"
      }, 
      "inputs": [[307, 0, 0]]
    }, 
    {
      "op": "tvm_op", 
      "name": "fused_expand_dims_64", 
      "attrs": {
        "flatten_data": "0", 
        "func_name": "fused_expand_dims_6", 
        "num_inputs": "1", 
        "num_outputs": "1"
      }, 
      "inputs": [[308, 0, 0]]
    }, 
    {
      "op": "tvm_op", 
      "name": "fused_divide_7", 
      "attrs": {
        "flatten_data": "0", 
        "func_name": "fused_divide_7", 
        "num_inputs": "2", 
        "num_outputs": "1"
      }, 
      "inputs": [[306, 0, 0], [309, 0, 0]]
    }, 
    {
      "op": "tvm_op", 
      "name": "fused_add_21", 
      "attrs": {
        "flatten_data": "0", 
        "func_name": "fused_add_2", 
        "num_inputs": "2", 
        "num_outputs": "1"
      }, 
      "inputs": [[292, 0, 0], [310, 0, 0]]
    }, 
    {
      "op": "tvm_op", 
      "name": "fused_nn_relu_11", 
      "attrs": {
        "flatten_data": "0", 
        "func_name": "fused_nn_relu_1", 
        "num_inputs": "1", 
        "num_outputs": "1"
      }, 
      "inputs": [[311, 0, 0]]
    }, 
    {
      "op": "null", 
      "name": "stage3_unit2_conv1_weight", 
      "inputs": []
    }, 
    {
      "op": "null", 
      "name": "constant26", 
      "inputs": []
    }, 
    {
      "op": "null", 
      "name": "stage3_unit2_bn2_moving_var", 
      "inputs": []
    }, 
    {
      "op": "null", 
      "name": "constant27", 
      "inputs": []
    }, 
    {
      "op": "tvm_op", 
      "name": "fused_add_162", 
      "attrs": {
        "flatten_data": "0", 
        "func_name": "fused_add_16", 
        "num_inputs": "2", 
        "num_outputs": "1"
      }, 
      "inputs": [[315, 0, 0], [316, 0, 0]]
    }, 
    {
      "op": "tvm_op", 
      "name": "fused_sqrt_32", 
      "attrs": {
        "flatten_data": "0", 
        "func_name": "fused_sqrt_3", 
        "num_inputs": "1", 
        "num_outputs": "1"
      }, 
      "inputs": [[317, 0, 0]]
    }, 
    {
      "op": "tvm_op", 
      "name": "fused_divide_62", 
      "attrs": {
        "flatten_data": "0", 
        "func_name": "fused_divide_6", 
        "num_inputs": "2", 
        "num_outputs": "1"
      }, 
      "inputs": [[314, 0, 0], [318, 0, 0]]
    }, 
    {
      "op": "null", 
      "name": "stage3_unit2_bn2_gamma", 
      "inputs": []
    }, 
    {
      "op": "tvm_op", 
      "name": "fused_multiply_164", 
      "attrs": {
        "flatten_data": "0", 
        "func_name": "fused_multiply_16", 
        "num_inputs": "2", 
        "num_outputs": "1"
      }, 
      "inputs": [[319, 0, 0], [320, 0, 0]]
    }, 
    {
      "op": "tvm_op", 
      "name": "fused_expand_dims_65", 
      "attrs": {
        "flatten_data": "0", 
        "func_name": "fused_expand_dims_6", 
        "num_inputs": "1", 
        "num_outputs": "1"
      }, 
      "inputs": [[321, 0, 0]]
    }, 
    {
      "op": "tvm_op", 
      "name": "fused_squeeze_32", 
      "attrs": {
        "flatten_data": "0", 
        "func_name": "fused_squeeze_3", 
        "num_inputs": "1", 
        "num_outputs": "1"
      }, 
      "inputs": [[322, 0, 0]]
    }, 
    {
      "op": "tvm_op", 
      "name": "fused_expand_dims_51", 
      "attrs": {
        "flatten_data": "0", 
        "func_name": "fused_expand_dims_5", 
        "num_inputs": "1", 
        "num_outputs": "1"
      }, 
      "inputs": [[323, 0, 0]]
    }, 
    {
      "op": "tvm_op", 
      "name": "fused_multiply_19", 
      "attrs": {
        "flatten_data": "0", 
        "func_name": "fused_multiply_19", 
        "num_inputs": "2", 
        "num_outputs": "1"
      }, 
      "inputs": [[313, 0, 0], [324, 0, 0]]
    }, 
    {
      "op": "tvm_op", 
      "name": "fused_expand_dims_66", 
      "attrs": {
        "flatten_data": "0", 
        "func_name": "fused_expand_dims_6", 
        "num_inputs": "1", 
        "num_outputs": "1"
      }, 
      "inputs": [[308, 0, 0]]
    }, 
    {
      "op": "tvm_op", 
      "name": "fused_multiply_18", 
      "attrs": {
        "flatten_data": "0", 
        "func_name": "fused_multiply_18", 
        "num_inputs": "2", 
        "num_outputs": "1"
      }, 
      "inputs": [[325, 0, 0], [326, 0, 0]]
    }, 
    {
      "op": "tvm_op", 
      "name": "fused_nn_conv2d_21", 
      "attrs": {
        "flatten_data": "0", 
        "func_name": "fused_nn_conv2d_2", 
        "num_inputs": "2", 
        "num_outputs": "1"
      }, 
      "inputs": [[312, 0, 0], [327, 0, 0]]
    }, 
    {
      "op": "null", 
      "name": "stage3_unit2_bn2_moving_mean", 
      "inputs": []
    }, 
    {
      "op": "tvm_op", 
      "name": "fused_negative_32", 
      "attrs": {
        "flatten_data": "0", 
        "func_name": "fused_negative_3", 
        "num_inputs": "1", 
        "num_outputs": "1"
      }, 
      "inputs": [[329, 0, 0]]
    }, 
    {
      "op": "tvm_op", 
      "name": "fused_multiply_165", 
      "attrs": {
        "flatten_data": "0", 
        "func_name": "fused_multiply_16", 
        "num_inputs": "2", 
        "num_outputs": "1"
      }, 
      "inputs": [[330, 0, 0], [321, 0, 0]]
    }, 
    {
      "op": "null", 
      "name": "stage3_unit2_bn2_beta", 
      "inputs": []
    }, 
    {
      "op": "tvm_op", 
      "name": "fused_add_172", 
      "attrs": {
        "flatten_data": "0", 
        "func_name": "fused_add_17", 
        "num_inputs": "2", 
        "num_outputs": "1"
      }, 
      "inputs": [[331, 0, 0], [332, 0, 0]]
    }, 
    {
      "op": "tvm_op", 
      "name": "fused_expand_dims_67", 
      "attrs": {
        "flatten_data": "0", 
        "func_name": "fused_expand_dims_6", 
        "num_inputs": "1", 
        "num_outputs": "1"
      }, 
      "inputs": [[333, 0, 0]]
    }, 
    {
      "op": "tvm_op", 
      "name": "fused_add_22", 
      "attrs": {
        "flatten_data": "0", 
        "func_name": "fused_add_2", 
        "num_inputs": "2", 
        "num_outputs": "1"
      }, 
      "inputs": [[328, 0, 0], [334, 0, 0]]
    }, 
    {
      "op": "tvm_op", 
      "name": "fused_nn_relu_12", 
      "attrs": {
        "flatten_data": "0", 
        "func_name": "fused_nn_relu_1", 
        "num_inputs": "1", 
        "num_outputs": "1"
      }, 
      "inputs": [[335, 0, 0]]
    }, 
    {
      "op": "null", 
      "name": "stage3_unit2_conv2_weight", 
      "inputs": []
    }, 
    {
      "op": "tvm_op", 
      "name": "fused_nn_conv2d_22", 
      "attrs": {
        "flatten_data": "0", 
        "func_name": "fused_nn_conv2d_2", 
        "num_inputs": "2", 
        "num_outputs": "1"
      }, 
      "inputs": [[336, 0, 0], [337, 0, 0]]
    }, 
    {
      "op": "tvm_op", 
      "name": "fused_add_31", 
      "attrs": {
        "flatten_data": "0", 
        "func_name": "fused_add_3", 
        "num_inputs": "2", 
        "num_outputs": "1"
      }, 
      "inputs": [[338, 0, 0], [292, 0, 0]]
    }, 
    {
      "op": "null", 
      "name": "stage4_unit1_bn1_moving_mean", 
      "inputs": []
    }, 
    {
      "op": "tvm_op", 
      "name": "fused_negative_33", 
      "attrs": {
        "flatten_data": "0", 
        "func_name": "fused_negative_3", 
        "num_inputs": "1", 
        "num_outputs": "1"
      }, 
      "inputs": [[340, 0, 0]]
    }, 
    {
      "op": "null", 
      "name": "constant28", 
      "inputs": []
    }, 
    {
      "op": "null", 
      "name": "stage4_unit1_bn1_moving_var", 
      "inputs": []
    }, 
    {
      "op": "null", 
      "name": "constant29", 
      "inputs": []
    }, 
    {
      "op": "tvm_op", 
      "name": "fused_add_163", 
      "attrs": {
        "flatten_data": "0", 
        "func_name": "fused_add_16", 
        "num_inputs": "2", 
        "num_outputs": "1"
      }, 
      "inputs": [[343, 0, 0], [344, 0, 0]]
    }, 
    {
      "op": "tvm_op", 
      "name": "fused_sqrt_33", 
      "attrs": {
        "flatten_data": "0", 
        "func_name": "fused_sqrt_3", 
        "num_inputs": "1", 
        "num_outputs": "1"
      }, 
      "inputs": [[345, 0, 0]]
    }, 
    {
      "op": "tvm_op", 
      "name": "fused_divide_63", 
      "attrs": {
        "flatten_data": "0", 
        "func_name": "fused_divide_6", 
        "num_inputs": "2", 
        "num_outputs": "1"
      }, 
      "inputs": [[342, 0, 0], [346, 0, 0]]
    }, 
    {
      "op": "null", 
      "name": "stage4_unit1_bn1_gamma", 
      "inputs": []
    }, 
    {
      "op": "tvm_op", 
      "name": "fused_multiply_166", 
      "attrs": {
        "flatten_data": "0", 
        "func_name": "fused_multiply_16", 
        "num_inputs": "2", 
        "num_outputs": "1"
      }, 
      "inputs": [[347, 0, 0], [348, 0, 0]]
    }, 
    {
      "op": "tvm_op", 
      "name": "fused_multiply_167", 
      "attrs": {
        "flatten_data": "0", 
        "func_name": "fused_multiply_16", 
        "num_inputs": "2", 
        "num_outputs": "1"
      }, 
      "inputs": [[341, 0, 0], [349, 0, 0]]
    }, 
    {
      "op": "null", 
      "name": "stage4_unit1_bn1_beta", 
      "inputs": []
    }, 
    {
      "op": "tvm_op", 
      "name": "fused_add_173", 
      "attrs": {
        "flatten_data": "0", 
        "func_name": "fused_add_17", 
        "num_inputs": "2", 
        "num_outputs": "1"
      }, 
      "inputs": [[350, 0, 0], [351, 0, 0]]
    }, 
    {
      "op": "tvm_op", 
      "name": "fused_expand_dims_68", 
      "attrs": {
        "flatten_data": "0", 
        "func_name": "fused_expand_dims_6", 
        "num_inputs": "1", 
        "num_outputs": "1"
      }, 
      "inputs": [[352, 0, 0]]
    }, 
    {
      "op": "tvm_op", 
      "name": "fused_expand_dims_69", 
      "attrs": {
        "flatten_data": "0", 
        "func_name": "fused_expand_dims_6", 
        "num_inputs": "1", 
        "num_outputs": "1"
      }, 
      "inputs": [[349, 0, 0]]
    }, 
    {
      "op": "tvm_op", 
      "name": "fused_squeeze_33", 
      "attrs": {
        "flatten_data": "0", 
        "func_name": "fused_squeeze_3", 
        "num_inputs": "1", 
        "num_outputs": "1"
      }, 
      "inputs": [[354, 0, 0]]
    }, 
    {
      "op": "tvm_op", 
      "name": "fused_expand_dims_610", 
      "attrs": {
        "flatten_data": "0", 
        "func_name": "fused_expand_dims_6", 
        "num_inputs": "1", 
        "num_outputs": "1"
      }, 
      "inputs": [[355, 0, 0]]
    }, 
    {
      "op": "tvm_op", 
      "name": "fused_divide_71", 
      "attrs": {
        "flatten_data": "0", 
        "func_name": "fused_divide_7", 
        "num_inputs": "2", 
        "num_outputs": "1"
      }, 
      "inputs": [[353, 0, 0], [356, 0, 0]]
    }, 
    {
      "op": "tvm_op", 
      "name": "fused_add_23", 
      "attrs": {
        "flatten_data": "0", 
        "func_name": "fused_add_2", 
        "num_inputs": "2", 
        "num_outputs": "1"
      }, 
      "inputs": [[339, 0, 0], [357, 0, 0]]
    }, 
    {
      "op": "tvm_op", 
      "name": "fused_nn_relu_13", 
      "attrs": {
        "flatten_data": "0", 
        "func_name": "fused_nn_relu_1", 
        "num_inputs": "1", 
        "num_outputs": "1"
      }, 
      "inputs": [[358, 0, 0]]
    }, 
    {
      "op": "null", 
      "name": "stage4_unit1_conv1_weight", 
      "inputs": []
    }, 
    {
      "op": "null", 
      "name": "constant30", 
      "inputs": []
    }, 
    {
      "op": "null", 
      "name": "stage4_unit1_bn2_moving_var", 
      "inputs": []
    }, 
    {
      "op": "null", 
      "name": "constant31", 
      "inputs": []
    }, 
    {
      "op": "tvm_op", 
      "name": "fused_add_18", 
      "attrs": {
        "flatten_data": "0", 
        "func_name": "fused_add_18", 
        "num_inputs": "2", 
        "num_outputs": "1"
      }, 
      "inputs": [[362, 0, 0], [363, 0, 0]]
    }, 
    {
      "op": "tvm_op", 
      "name": "fused_sqrt_4", 
      "attrs": {
        "flatten_data": "0", 
        "func_name": "fused_sqrt_4", 
        "num_inputs": "1", 
        "num_outputs": "1"
      }, 
      "inputs": [[364, 0, 0]]
    }, 
    {
      "op": "tvm_op", 
      "name": "fused_divide_8", 
      "attrs": {
        "flatten_data": "0", 
        "func_name": "fused_divide_8", 
        "num_inputs": "2", 
        "num_outputs": "1"
      }, 
      "inputs": [[361, 0, 0], [365, 0, 0]]
    }, 
    {
      "op": "null", 
      "name": "stage4_unit1_bn2_gamma", 
      "inputs": []
    }, 
    {
      "op": "tvm_op", 
      "name": "fused_multiply_22", 
      "attrs": {
        "flatten_data": "0", 
        "func_name": "fused_multiply_22", 
        "num_inputs": "2", 
        "num_outputs": "1"
      }, 
      "inputs": [[366, 0, 0], [367, 0, 0]]
    }, 
    {
      "op": "tvm_op", 
      "name": "fused_expand_dims_8", 
      "attrs": {
        "flatten_data": "0", 
        "func_name": "fused_expand_dims_8", 
        "num_inputs": "1", 
        "num_outputs": "1"
      }, 
      "inputs": [[368, 0, 0]]
    }, 
    {
      "op": "tvm_op", 
      "name": "fused_squeeze_4", 
      "attrs": {
        "flatten_data": "0", 
        "func_name": "fused_squeeze_4", 
        "num_inputs": "1", 
        "num_outputs": "1"
      }, 
      "inputs": [[369, 0, 0]]
    }, 
    {
      "op": "tvm_op", 
      "name": "fused_expand_dims_7", 
      "attrs": {
        "flatten_data": "0", 
        "func_name": "fused_expand_dims_7", 
        "num_inputs": "1", 
        "num_outputs": "1"
      }, 
      "inputs": [[370, 0, 0]]
    }, 
    {
      "op": "tvm_op", 
      "name": "fused_multiply_21", 
      "attrs": {
        "flatten_data": "0", 
        "func_name": "fused_multiply_21", 
        "num_inputs": "2", 
        "num_outputs": "1"
      }, 
      "inputs": [[360, 0, 0], [371, 0, 0]]
    }, 
    {
      "op": "tvm_op", 
      "name": "fused_expand_dims_611", 
      "attrs": {
        "flatten_data": "0", 
        "func_name": "fused_expand_dims_6", 
        "num_inputs": "1", 
        "num_outputs": "1"
      }, 
      "inputs": [[355, 0, 0]]
    }, 
    {
      "op": "tvm_op", 
      "name": "fused_multiply_20", 
      "attrs": {
        "flatten_data": "0", 
        "func_name": "fused_multiply_20", 
        "num_inputs": "2", 
        "num_outputs": "1"
      }, 
      "inputs": [[372, 0, 0], [373, 0, 0]]
    }, 
    {
      "op": "tvm_op", 
      "name": "fused_nn_conv2d_1", 
      "attrs": {
        "flatten_data": "0", 
        "func_name": "fused_nn_conv2d_1", 
        "num_inputs": "2", 
        "num_outputs": "1"
      }, 
      "inputs": [[359, 0, 0], [374, 0, 0]]
    }, 
    {
      "op": "null", 
      "name": "stage4_unit1_bn2_moving_mean", 
      "inputs": []
    }, 
    {
      "op": "tvm_op", 
      "name": "fused_negative_4", 
      "attrs": {
        "flatten_data": "0", 
        "func_name": "fused_negative_4", 
        "num_inputs": "1", 
        "num_outputs": "1"
      }, 
      "inputs": [[376, 0, 0]]
    }, 
    {
      "op": "tvm_op", 
      "name": "fused_multiply_221", 
      "attrs": {
        "flatten_data": "0", 
        "func_name": "fused_multiply_22", 
        "num_inputs": "2", 
        "num_outputs": "1"
      }, 
      "inputs": [[377, 0, 0], [368, 0, 0]]
    }, 
    {
      "op": "null", 
      "name": "stage4_unit1_bn2_beta", 
      "inputs": []
    }, 
    {
      "op": "tvm_op", 
      "name": "fused_add_19", 
      "attrs": {
        "flatten_data": "0", 
        "func_name": "fused_add_19", 
        "num_inputs": "2", 
        "num_outputs": "1"
      }, 
      "inputs": [[378, 0, 0], [379, 0, 0]]
    }, 
    {
      "op": "tvm_op", 
      "name": "fused_expand_dims_81", 
      "attrs": {
        "flatten_data": "0", 
        "func_name": "fused_expand_dims_8", 
        "num_inputs": "1", 
        "num_outputs": "1"
      }, 
      "inputs": [[380, 0, 0]]
    }, 
    {
      "op": "tvm_op", 
      "name": "fused_add", 
      "attrs": {
        "flatten_data": "0", 
        "func_name": "fused_add", 
        "num_inputs": "2", 
        "num_outputs": "1"
      }, 
      "inputs": [[375, 0, 0], [381, 0, 0]]
    }, 
    {
      "op": "tvm_op", 
      "name": "fused_nn_relu", 
      "attrs": {
        "flatten_data": "0", 
        "func_name": "fused_nn_relu", 
        "num_inputs": "1", 
        "num_outputs": "1"
      }, 
      "inputs": [[382, 0, 0]]
    }, 
    {
      "op": "null", 
      "name": "stage4_unit1_conv2_weight", 
      "inputs": []
    }, 
    {
      "op": "tvm_op", 
      "name": "fused_nn_conv2d", 
      "attrs": {
        "flatten_data": "0", 
        "func_name": "fused_nn_conv2d", 
        "num_inputs": "2", 
        "num_outputs": "1"
      }, 
      "inputs": [[383, 0, 0], [384, 0, 0]]
    }, 
    {
      "op": "tvm_op", 
      "name": "fused_nn_relu_14", 
      "attrs": {
        "flatten_data": "0", 
        "func_name": "fused_nn_relu_1", 
        "num_inputs": "1", 
        "num_outputs": "1"
      }, 
      "inputs": [[358, 0, 0]]
    }, 
    {
      "op": "null", 
      "name": "stage4_unit1_sc_weight", 
      "inputs": []
    }, 
    {
      "op": "tvm_op", 
      "name": "fused_expand_dims_612", 
      "attrs": {
        "flatten_data": "0", 
        "func_name": "fused_expand_dims_6", 
        "num_inputs": "1", 
        "num_outputs": "1"
      }, 
      "inputs": [[355, 0, 0]]
    }, 
    {
      "op": "tvm_op", 
      "name": "fused_multiply_23", 
      "attrs": {
        "flatten_data": "0", 
        "func_name": "fused_multiply_23", 
        "num_inputs": "2", 
        "num_outputs": "1"
      }, 
      "inputs": [[387, 0, 0], [388, 0, 0]]
    }, 
    {
      "op": "tvm_op", 
      "name": "fused_nn_conv2d_11", 
      "attrs": {
        "flatten_data": "0", 
        "func_name": "fused_nn_conv2d_11", 
        "num_inputs": "2", 
        "num_outputs": "1"
      }, 
      "inputs": [[386, 0, 0], [389, 0, 0]]
    }, 
    {
      "op": "tvm_op", 
      "name": "fused_add_1", 
      "attrs": {
        "flatten_data": "0", 
        "func_name": "fused_add_1", 
        "num_inputs": "2", 
        "num_outputs": "1"
      }, 
      "inputs": [[385, 0, 0], [390, 0, 0]]
    }, 
    {
      "op": "null", 
      "name": "stage4_unit2_bn1_moving_mean", 
      "inputs": []
    }, 
    {
      "op": "tvm_op", 
      "name": "fused_negative_41", 
      "attrs": {
        "flatten_data": "0", 
        "func_name": "fused_negative_4", 
        "num_inputs": "1", 
        "num_outputs": "1"
      }, 
      "inputs": [[392, 0, 0]]
    }, 
    {
      "op": "null", 
      "name": "constant32", 
      "inputs": []
    }, 
    {
      "op": "null", 
      "name": "stage4_unit2_bn1_moving_var", 
      "inputs": []
    }, 
    {
      "op": "null", 
      "name": "constant33", 
      "inputs": []
    }, 
    {
      "op": "tvm_op", 
      "name": "fused_add_181", 
      "attrs": {
        "flatten_data": "0", 
        "func_name": "fused_add_18", 
        "num_inputs": "2", 
        "num_outputs": "1"
      }, 
      "inputs": [[395, 0, 0], [396, 0, 0]]
    }, 
    {
      "op": "tvm_op", 
      "name": "fused_sqrt_41", 
      "attrs": {
        "flatten_data": "0", 
        "func_name": "fused_sqrt_4", 
        "num_inputs": "1", 
        "num_outputs": "1"
      }, 
      "inputs": [[397, 0, 0]]
    }, 
    {
      "op": "tvm_op", 
      "name": "fused_divide_81", 
      "attrs": {
        "flatten_data": "0", 
        "func_name": "fused_divide_8", 
        "num_inputs": "2", 
        "num_outputs": "1"
      }, 
      "inputs": [[394, 0, 0], [398, 0, 0]]
    }, 
    {
      "op": "null", 
      "name": "stage4_unit2_bn1_gamma", 
      "inputs": []
    }, 
    {
      "op": "tvm_op", 
      "name": "fused_multiply_222", 
      "attrs": {
        "flatten_data": "0", 
        "func_name": "fused_multiply_22", 
        "num_inputs": "2", 
        "num_outputs": "1"
      }, 
      "inputs": [[399, 0, 0], [400, 0, 0]]
    }, 
    {
      "op": "tvm_op", 
      "name": "fused_multiply_223", 
      "attrs": {
        "flatten_data": "0", 
        "func_name": "fused_multiply_22", 
        "num_inputs": "2", 
        "num_outputs": "1"
      }, 
      "inputs": [[393, 0, 0], [401, 0, 0]]
    }, 
    {
      "op": "null", 
      "name": "stage4_unit2_bn1_beta", 
      "inputs": []
    }, 
    {
      "op": "tvm_op", 
      "name": "fused_add_191", 
      "attrs": {
        "flatten_data": "0", 
        "func_name": "fused_add_19", 
        "num_inputs": "2", 
        "num_outputs": "1"
      }, 
      "inputs": [[402, 0, 0], [403, 0, 0]]
    }, 
    {
      "op": "tvm_op", 
      "name": "fused_expand_dims_82", 
      "attrs": {
        "flatten_data": "0", 
        "func_name": "fused_expand_dims_8", 
        "num_inputs": "1", 
        "num_outputs": "1"
      }, 
      "inputs": [[404, 0, 0]]
    }, 
    {
      "op": "tvm_op", 
      "name": "fused_expand_dims_83", 
      "attrs": {
        "flatten_data": "0", 
        "func_name": "fused_expand_dims_8", 
        "num_inputs": "1", 
        "num_outputs": "1"
      }, 
      "inputs": [[401, 0, 0]]
    }, 
    {
      "op": "tvm_op", 
      "name": "fused_squeeze_41", 
      "attrs": {
        "flatten_data": "0", 
        "func_name": "fused_squeeze_4", 
        "num_inputs": "1", 
        "num_outputs": "1"
      }, 
      "inputs": [[406, 0, 0]]
    }, 
    {
      "op": "tvm_op", 
      "name": "fused_expand_dims_84", 
      "attrs": {
        "flatten_data": "0", 
        "func_name": "fused_expand_dims_8", 
        "num_inputs": "1", 
        "num_outputs": "1"
      }, 
      "inputs": [[407, 0, 0]]
    }, 
    {
      "op": "tvm_op", 
      "name": "fused_divide_9", 
      "attrs": {
        "flatten_data": "0", 
        "func_name": "fused_divide_9", 
        "num_inputs": "2", 
        "num_outputs": "1"
      }, 
      "inputs": [[405, 0, 0], [408, 0, 0]]
    }, 
    {
      "op": "tvm_op", 
      "name": "fused_add1", 
      "attrs": {
        "flatten_data": "0", 
        "func_name": "fused_add", 
        "num_inputs": "2", 
        "num_outputs": "1"
      }, 
      "inputs": [[391, 0, 0], [409, 0, 0]]
    }, 
    {
      "op": "tvm_op", 
      "name": "fused_nn_relu1", 
      "attrs": {
        "flatten_data": "0", 
        "func_name": "fused_nn_relu", 
        "num_inputs": "1", 
        "num_outputs": "1"
      }, 
      "inputs": [[410, 0, 0]]
    }, 
    {
      "op": "null", 
      "name": "stage4_unit2_conv1_weight", 
      "inputs": []
    }, 
    {
      "op": "null", 
      "name": "constant34", 
      "inputs": []
    }, 
    {
      "op": "null", 
      "name": "stage4_unit2_bn2_moving_var", 
      "inputs": []
    }, 
    {
      "op": "null", 
      "name": "constant35", 
      "inputs": []
    }, 
    {
      "op": "tvm_op", 
      "name": "fused_add_182", 
      "attrs": {
        "flatten_data": "0", 
        "func_name": "fused_add_18", 
        "num_inputs": "2", 
        "num_outputs": "1"
      }, 
      "inputs": [[414, 0, 0], [415, 0, 0]]
    }, 
    {
      "op": "tvm_op", 
      "name": "fused_sqrt_42", 
      "attrs": {
        "flatten_data": "0", 
        "func_name": "fused_sqrt_4", 
        "num_inputs": "1", 
        "num_outputs": "1"
      }, 
      "inputs": [[416, 0, 0]]
    }, 
    {
      "op": "tvm_op", 
      "name": "fused_divide_82", 
      "attrs": {
        "flatten_data": "0", 
        "func_name": "fused_divide_8", 
        "num_inputs": "2", 
        "num_outputs": "1"
      }, 
      "inputs": [[413, 0, 0], [417, 0, 0]]
    }, 
    {
      "op": "null", 
      "name": "stage4_unit2_bn2_gamma", 
      "inputs": []
    }, 
    {
      "op": "tvm_op", 
      "name": "fused_multiply_224", 
      "attrs": {
        "flatten_data": "0", 
        "func_name": "fused_multiply_22", 
        "num_inputs": "2", 
        "num_outputs": "1"
      }, 
      "inputs": [[418, 0, 0], [419, 0, 0]]
    }, 
    {
      "op": "tvm_op", 
      "name": "fused_expand_dims_85", 
      "attrs": {
        "flatten_data": "0", 
        "func_name": "fused_expand_dims_8", 
        "num_inputs": "1", 
        "num_outputs": "1"
      }, 
      "inputs": [[420, 0, 0]]
    }, 
    {
      "op": "tvm_op", 
      "name": "fused_squeeze_42", 
      "attrs": {
        "flatten_data": "0", 
        "func_name": "fused_squeeze_4", 
        "num_inputs": "1", 
        "num_outputs": "1"
      }, 
      "inputs": [[421, 0, 0]]
    }, 
    {
      "op": "tvm_op", 
      "name": "fused_expand_dims_71", 
      "attrs": {
        "flatten_data": "0", 
        "func_name": "fused_expand_dims_7", 
        "num_inputs": "1", 
        "num_outputs": "1"
      }, 
      "inputs": [[422, 0, 0]]
    }, 
    {
      "op": "tvm_op", 
      "name": "fused_multiply_25", 
      "attrs": {
        "flatten_data": "0", 
        "func_name": "fused_multiply_25", 
        "num_inputs": "2", 
        "num_outputs": "1"
      }, 
      "inputs": [[412, 0, 0], [423, 0, 0]]
    }, 
    {
      "op": "tvm_op", 
      "name": "fused_expand_dims_86", 
      "attrs": {
        "flatten_data": "0", 
        "func_name": "fused_expand_dims_8", 
        "num_inputs": "1", 
        "num_outputs": "1"
      }, 
      "inputs": [[407, 0, 0]]
    }, 
    {
      "op": "tvm_op", 
      "name": "fused_multiply_24", 
      "attrs": {
        "flatten_data": "0", 
        "func_name": "fused_multiply_24", 
        "num_inputs": "2", 
        "num_outputs": "1"
      }, 
      "inputs": [[424, 0, 0], [425, 0, 0]]
    }, 
    {
      "op": "tvm_op", 
      "name": "fused_nn_conv2d1", 
      "attrs": {
        "flatten_data": "0", 
        "func_name": "fused_nn_conv2d", 
        "num_inputs": "2", 
        "num_outputs": "1"
      }, 
      "inputs": [[411, 0, 0], [426, 0, 0]]
    }, 
    {
      "op": "null", 
      "name": "stage4_unit2_bn2_moving_mean", 
      "inputs": []
    }, 
    {
      "op": "tvm_op", 
      "name": "fused_negative_42", 
      "attrs": {
        "flatten_data": "0", 
        "func_name": "fused_negative_4", 
        "num_inputs": "1", 
        "num_outputs": "1"
      }, 
      "inputs": [[428, 0, 0]]
    }, 
    {
      "op": "tvm_op", 
      "name": "fused_multiply_225", 
      "attrs": {
        "flatten_data": "0", 
        "func_name": "fused_multiply_22", 
        "num_inputs": "2", 
        "num_outputs": "1"
      }, 
      "inputs": [[429, 0, 0], [420, 0, 0]]
    }, 
    {
      "op": "null", 
      "name": "stage4_unit2_bn2_beta", 
      "inputs": []
    }, 
    {
      "op": "tvm_op", 
      "name": "fused_add_192", 
      "attrs": {
        "flatten_data": "0", 
        "func_name": "fused_add_19", 
        "num_inputs": "2", 
        "num_outputs": "1"
      }, 
      "inputs": [[430, 0, 0], [431, 0, 0]]
    }, 
    {
      "op": "tvm_op", 
      "name": "fused_expand_dims_87", 
      "attrs": {
        "flatten_data": "0", 
        "func_name": "fused_expand_dims_8", 
        "num_inputs": "1", 
        "num_outputs": "1"
      }, 
      "inputs": [[432, 0, 0]]
    }, 
    {
      "op": "tvm_op", 
      "name": "fused_add2", 
      "attrs": {
        "flatten_data": "0", 
        "func_name": "fused_add", 
        "num_inputs": "2", 
        "num_outputs": "1"
      }, 
      "inputs": [[427, 0, 0], [433, 0, 0]]
    }, 
    {
      "op": "tvm_op", 
      "name": "fused_nn_relu2", 
      "attrs": {
        "flatten_data": "0", 
        "func_name": "fused_nn_relu", 
        "num_inputs": "1", 
        "num_outputs": "1"
      }, 
      "inputs": [[434, 0, 0]]
    }, 
    {
      "op": "null", 
      "name": "stage4_unit2_conv2_weight", 
      "inputs": []
    }, 
    {
      "op": "tvm_op", 
      "name": "fused_nn_conv2d2", 
      "attrs": {
        "flatten_data": "0", 
        "func_name": "fused_nn_conv2d", 
        "num_inputs": "2", 
        "num_outputs": "1"
      }, 
      "inputs": [[435, 0, 0], [436, 0, 0]]
    }, 
    {
      "op": "tvm_op", 
      "name": "fused_add_111", 
      "attrs": {
        "flatten_data": "0", 
        "func_name": "fused_add_1", 
        "num_inputs": "2", 
        "num_outputs": "1"
      }, 
      "inputs": [[437, 0, 0], [391, 0, 0]]
    }, 
    {
      "op": "null", 
      "name": "constant36", 
      "inputs": []
    }, 
    {
      "op": "null", 
      "name": "bn1_moving_var", 
      "inputs": []
    }, 
    {
      "op": "null", 
      "name": "constant37", 
      "inputs": []
    }, 
    {
      "op": "tvm_op", 
      "name": "fused_add_183", 
      "attrs": {
        "flatten_data": "0", 
        "func_name": "fused_add_18", 
        "num_inputs": "2", 
        "num_outputs": "1"
      }, 
      "inputs": [[440, 0, 0], [441, 0, 0]]
    }, 
    {
      "op": "tvm_op", 
      "name": "fused_sqrt_43", 
      "attrs": {
        "flatten_data": "0", 
        "func_name": "fused_sqrt_4", 
        "num_inputs": "1", 
        "num_outputs": "1"
      }, 
      "inputs": [[442, 0, 0]]
    }, 
    {
      "op": "tvm_op", 
      "name": "fused_divide_83", 
      "attrs": {
        "flatten_data": "0", 
        "func_name": "fused_divide_8", 
        "num_inputs": "2", 
        "num_outputs": "1"
      }, 
      "inputs": [[439, 0, 0], [443, 0, 0]]
    }, 
    {
      "op": "null", 
      "name": "bn1_gamma", 
      "inputs": []
    }, 
    {
      "op": "tvm_op", 
      "name": "fused_multiply_226", 
      "attrs": {
        "flatten_data": "0", 
        "func_name": "fused_multiply_22", 
        "num_inputs": "2", 
        "num_outputs": "1"
      }, 
      "inputs": [[444, 0, 0], [445, 0, 0]]
    }, 
    {
      "op": "tvm_op", 
      "name": "fused_expand_dims_88", 
      "attrs": {
        "flatten_data": "0", 
        "func_name": "fused_expand_dims_8", 
        "num_inputs": "1", 
        "num_outputs": "1"
      }, 
      "inputs": [[446, 0, 0]]
    }, 
    {
      "op": "tvm_op", 
      "name": "fused_multiply", 
      "attrs": {
        "flatten_data": "0", 
        "func_name": "fused_multiply", 
        "num_inputs": "2", 
        "num_outputs": "1"
      }, 
      "inputs": [[438, 0, 0], [447, 0, 0]]
    }, 
    {
      "op": "null", 
      "name": "bn1_moving_mean", 
      "inputs": []
    }, 
    {
      "op": "tvm_op", 
      "name": "fused_negative_43", 
      "attrs": {
        "flatten_data": "0", 
        "func_name": "fused_negative_4", 
        "num_inputs": "1", 
        "num_outputs": "1"
      }, 
      "inputs": [[449, 0, 0]]
    }, 
    {
      "op": "tvm_op", 
      "name": "fused_multiply_227", 
      "attrs": {
        "flatten_data": "0", 
        "func_name": "fused_multiply_22", 
        "num_inputs": "2", 
        "num_outputs": "1"
      }, 
      "inputs": [[450, 0, 0], [446, 0, 0]]
    }, 
    {
      "op": "null", 
      "name": "bn1_beta", 
      "inputs": []
    }, 
    {
      "op": "tvm_op", 
      "name": "fused_add_193", 
      "attrs": {
        "flatten_data": "0", 
        "func_name": "fused_add_19", 
        "num_inputs": "2", 
        "num_outputs": "1"
      }, 
      "inputs": [[451, 0, 0], [452, 0, 0]]
    }, 
    {
      "op": "tvm_op", 
      "name": "fused_expand_dims_89", 
      "attrs": {
        "flatten_data": "0", 
        "func_name": "fused_expand_dims_8", 
        "num_inputs": "1", 
        "num_outputs": "1"
      }, 
      "inputs": [[453, 0, 0]]
    }, 
    {
      "op": "tvm_op", 
      "name": "fused_add3", 
      "attrs": {
        "flatten_data": "0", 
        "func_name": "fused_add", 
        "num_inputs": "2", 
        "num_outputs": "1"
      }, 
      "inputs": [[448, 0, 0], [454, 0, 0]]
    }, 
    {
      "op": "tvm_op", 
      "name": "fused_nn_relu3", 
      "attrs": {
        "flatten_data": "0", 
        "func_name": "fused_nn_relu", 
        "num_inputs": "1", 
        "num_outputs": "1"
      }, 
      "inputs": [[455, 0, 0]]
    }, 
    {
      "op": "tvm_op", 
      "name": "fused_nn_global_avg_pool2d", 
      "attrs": {
        "flatten_data": "0", 
        "func_name": "fused_nn_global_avg_pool2d", 
        "num_inputs": "1", 
        "num_outputs": "1"
      }, 
      "inputs": [[456, 0, 0]]
    }, 
    {
      "op": "tvm_op", 
      "name": "fused_nn_batch_flatten", 
      "attrs": {
        "flatten_data": "0", 
        "func_name": "fused_nn_batch_flatten", 
        "num_inputs": "1", 
        "num_outputs": "1"
      }, 
      "inputs": [[457, 0, 0]]
    }, 
    {
      "op": "null", 
      "name": "fc1_weight", 
      "inputs": []
    }, 
    {
      "op": "tvm_op", 
      "name": "fused_nn_dense", 
      "attrs": {
        "flatten_data": "0", 
        "func_name": "fused_nn_dense", 
        "num_inputs": "2", 
        "num_outputs": "1"
      }, 
      "inputs": [[458, 0, 0], [459, 0, 0]]
    }, 
    {
      "op": "null", 
      "name": "fc1_bias", 
      "inputs": []
    }, 
    {
      "op": "tvm_op", 
      "name": "fused_nn_bias_add", 
      "attrs": {
        "flatten_data": "0", 
        "func_name": "fused_nn_bias_add", 
        "num_inputs": "2", 
        "num_outputs": "1"
      }, 
      "inputs": [[460, 0, 0], [461, 0, 0]]
    }, 
    {
      "op": "tvm_op", 
      "name": "fused_nn_softmax", 
      "attrs": {
        "flatten_data": "0", 
        "func_name": "fused_nn_softmax", 
        "num_inputs": "1", 
        "num_outputs": "1"
      }, 
      "inputs": [[462, 0, 0]]
    }
  ], 
  "arg_nodes": [
    0, 
    1, 
    3, 
    4, 
    5, 
    10, 
    18, 
    19, 
    20, 
    21, 
    25, 
    34, 
    37, 
    43, 
    45, 
    46, 
    47, 
    51, 
    54, 
    63, 
    64, 
    65, 
    66, 
    70, 
    79, 
    82, 
    87, 
    90, 
    95, 
    97, 
    98, 
    99, 
    103, 
    106, 
    115, 
    116, 
    117, 
    118, 
    122, 
    131, 
    134, 
    139, 
    142, 
    144, 
    145, 
    146, 
    150, 
    153, 
    162, 
    163, 
    164, 
    165, 
    169, 
    178, 
    181, 
    186, 
    189, 
    194, 
    196, 
    197, 
    198, 
    202, 
    205, 
    214, 
    215, 
    216, 
    217, 
    221, 
    230, 
    233, 
    238, 
    241, 
    243, 
    244, 
    245, 
    249, 
    252, 
    261, 
    262, 
    263, 
    264, 
    268, 
    277, 
    280, 
    285, 
    288, 
    293, 
    295, 
    296, 
    297, 
    301, 
    304, 
    313, 
    314, 
    315, 
    316, 
    320, 
    329, 
    332, 
    337, 
    340, 
    342, 
    343, 
    344, 
    348, 
    351, 
    360, 
    361, 
    362, 
    363, 
    367, 
    376, 
    379, 
    384, 
    387, 
    392, 
    394, 
    395, 
    396, 
    400, 
    403, 
    412, 
    413, 
    414, 
    415, 
    419, 
    428, 
    431, 
    436, 
    439, 
    440, 
    441, 
    445, 
    449, 
    452, 
    459, 
    461
  ], 
  "node_row_ptr": [
    0, 
    1, 
    2, 
    3, 
    4, 
    5, 
    6, 
    7, 
    8, 
    9, 
    10, 
    11, 
    12, 
    13, 
    14, 
    15, 
    16, 
    17, 
    18, 
    19, 
    20, 
    21, 
    22, 
    23, 
    24, 
    25, 
    26, 
    27, 
    28, 
    29, 
    30, 
    31, 
    32, 
    33, 
    34, 
    35, 
    36, 
    37, 
    38, 
    39, 
    40, 
    41, 
    42, 
    43, 
    44, 
    45, 
    46, 
    47, 
    48, 
    49, 
    50, 
    51, 
    52, 
    53, 
    54, 
    55, 
    56, 
    57, 
    58, 
    59, 
    60, 
    61, 
    62, 
    63, 
    64, 
    65, 
    66, 
    67, 
    68, 
    69, 
    70, 
    71, 
    72, 
    73, 
    74, 
    75, 
    76, 
    77, 
    78, 
    79, 
    80, 
    81, 
    82, 
    83, 
    84, 
    85, 
    86, 
    87, 
    88, 
    89, 
    90, 
    91, 
    92, 
    93, 
    94, 
    95, 
    96, 
    97, 
    98, 
    99, 
    100, 
    101, 
    102, 
    103, 
    104, 
    105, 
    106, 
    107, 
    108, 
    109, 
    110, 
    111, 
    112, 
    113, 
    114, 
    115, 
    116, 
    117, 
    118, 
    119, 
    120, 
    121, 
    122, 
    123, 
    124, 
    125, 
    126, 
    127, 
    128, 
    129, 
    130, 
    131, 
    132, 
    133, 
    134, 
    135, 
    136, 
    137, 
    138, 
    139, 
    140, 
    141, 
    142, 
    143, 
    144, 
    145, 
    146, 
    147, 
    148, 
    149, 
    150, 
    151, 
    152, 
    153, 
    154, 
    155, 
    156, 
    157, 
    158, 
    159, 
    160, 
    161, 
    162, 
    163, 
    164, 
    165, 
    166, 
    167, 
    168, 
    169, 
    170, 
    171, 
    172, 
    173, 
    174, 
    175, 
    176, 
    177, 
    178, 
    179, 
    180, 
    181, 
    182, 
    183, 
    184, 
    185, 
    186, 
    187, 
    188, 
    189, 
    190, 
    191, 
    192, 
    193, 
    194, 
    195, 
    196, 
    197, 
    198, 
    199, 
    200, 
    201, 
    202, 
    203, 
    204, 
    205, 
    206, 
    207, 
    208, 
    209, 
    210, 
    211, 
    212, 
    213, 
    214, 
    215, 
    216, 
    217, 
    218, 
    219, 
    220, 
    221, 
    222, 
    223, 
    224, 
    225, 
    226, 
    227, 
    228, 
    229, 
    230, 
    231, 
    232, 
    233, 
    234, 
    235, 
    236, 
    237, 
    238, 
    239, 
    240, 
    241, 
    242, 
    243, 
    244, 
    245, 
    246, 
    247, 
    248, 
    249, 
    250, 
    251, 
    252, 
    253, 
    254, 
    255, 
    256, 
    257, 
    258, 
    259, 
    260, 
    261, 
    262, 
    263, 
    264, 
    265, 
    266, 
    267, 
    268, 
    269, 
    270, 
    271, 
    272, 
    273, 
    274, 
    275, 
    276, 
    277, 
    278, 
    279, 
    280, 
    281, 
    282, 
    283, 
    284, 
    285, 
    286, 
    287, 
    288, 
    289, 
    290, 
    291, 
    292, 
    293, 
    294, 
    295, 
    296, 
    297, 
    298, 
    299, 
    300, 
    301, 
    302, 
    303, 
    304, 
    305, 
    306, 
    307, 
    308, 
    309, 
    310, 
    311, 
    312, 
    313, 
    314, 
    315, 
    316, 
    317, 
    318, 
    319, 
    320, 
    321, 
    322, 
    323, 
    324, 
    325, 
    326, 
    327, 
    328, 
    329, 
    330, 
    331, 
    332, 
    333, 
    334, 
    335, 
    336, 
    337, 
    338, 
    339, 
    340, 
    341, 
    342, 
    343, 
    344, 
    345, 
    346, 
    347, 
    348, 
    349, 
    350, 
    351, 
    352, 
    353, 
    354, 
    355, 
    356, 
    357, 
    358, 
    359, 
    360, 
    361, 
    362, 
    363, 
    364, 
    365, 
    366, 
    367, 
    368, 
    369, 
    370, 
    371, 
    372, 
    373, 
    374, 
    375, 
    376, 
    377, 
    378, 
    379, 
    380, 
    381, 
    382, 
    383, 
    384, 
    385, 
    386, 
    387, 
    388, 
    389, 
    390, 
    391, 
    392, 
    393, 
    394, 
    395, 
    396, 
    397, 
    398, 
    399, 
    400, 
    401, 
    402, 
    403, 
    404, 
    405, 
    406, 
    407, 
    408, 
    409, 
    410, 
    411, 
    412, 
    413, 
    414, 
    415, 
    416, 
    417, 
    418, 
    419, 
    420, 
    421, 
    422, 
    423, 
    424, 
    425, 
    426, 
    427, 
    428, 
    429, 
    430, 
    431, 
    432, 
    433, 
    434, 
    435, 
    436, 
    437, 
    438, 
    439, 
    440, 
    441, 
    442, 
    443, 
    444, 
    445, 
    446, 
    447, 
    448, 
    449, 
    450, 
    451, 
    452, 
    453, 
    454, 
    455, 
    456, 
    457, 
    458, 
    459, 
    460, 
    461, 
    462, 
    463, 
    464
  ], 
  "heads": [[463, 0, 0]], 
  "attrs": {
    "dltype": ["list_str", [
        "float32", 
        "float32", 
        "float32", 
        "float32", 
        "float32", 
        "float32", 
        "float32", 
        "float32", 
        "float32", 
        "float32", 
        "float32", 
        "float32", 
        "float32", 
        "float32", 
        "float32", 
        "float32", 
        "float32", 
        "float32", 
        "float32", 
        "float32", 
        "float32", 
        "float32", 
        "float32", 
        "float32", 
        "float32", 
        "float32", 
        "float32", 
        "float32", 
        "float32", 
        "float32", 
        "float32", 
        "float32", 
        "float32", 
        "float32", 
        "float32", 
        "float32", 
        "float32", 
        "float32", 
        "float32", 
        "float32", 
        "float32", 
        "float32", 
        "float32", 
        "float32", 
        "float32", 
        "float32", 
        "float32", 
        "float32", 
        "float32", 
        "float32", 
        "float32", 
        "float32", 
        "float32", 
        "float32", 
        "float32", 
        "float32", 
        "float32", 
        "float32", 
        "float32", 
        "float32", 
        "float32", 
        "float32", 
        "float32", 
        "float32", 
        "float32", 
        "float32", 
        "float32", 
        "float32", 
        "float32", 
        "float32", 
        "float32", 
        "float32", 
        "float32", 
        "float32", 
        "float32", 
        "float32", 
        "float32", 
        "float32", 
        "float32", 
        "float32", 
        "float32", 
        "float32", 
        "float32", 
        "float32", 
        "float32", 
        "float32", 
        "float32", 
        "float32", 
        "float32", 
        "float32", 
        "float32", 
        "float32", 
        "float32", 
        "float32", 
        "float32", 
        "float32", 
        "float32", 
        "float32", 
        "float32", 
        "float32", 
        "float32", 
        "float32", 
        "float32", 
        "float32", 
        "float32", 
        "float32", 
        "float32", 
        "float32", 
        "float32", 
        "float32", 
        "float32", 
        "float32", 
        "float32", 
        "float32", 
        "float32", 
        "float32", 
        "float32", 
        "float32", 
        "float32", 
        "float32", 
        "float32", 
        "float32", 
        "float32", 
        "float32", 
        "float32", 
        "float32", 
        "float32", 
        "float32", 
        "float32", 
        "float32", 
        "float32", 
        "float32", 
        "float32", 
        "float32", 
        "float32", 
        "float32", 
        "float32", 
        "float32", 
        "float32", 
        "float32", 
        "float32", 
        "float32", 
        "float32", 
        "float32", 
        "float32", 
        "float32", 
        "float32", 
        "float32", 
        "float32", 
        "float32", 
        "float32", 
        "float32", 
        "float32", 
        "float32", 
        "float32", 
        "float32", 
        "float32", 
        "float32", 
        "float32", 
        "float32", 
        "float32", 
        "float32", 
        "float32", 
        "float32", 
        "float32", 
        "float32", 
        "float32", 
        "float32", 
        "float32", 
        "float32", 
        "float32", 
        "float32", 
        "float32", 
        "float32", 
        "float32", 
        "float32", 
        "float32", 
        "float32", 
        "float32", 
        "float32", 
        "float32", 
        "float32", 
        "float32", 
        "float32", 
        "float32", 
        "float32", 
        "float32", 
        "float32", 
        "float32", 
        "float32", 
        "float32", 
        "float32", 
        "float32", 
        "float32", 
        "float32", 
        "float32", 
        "float32", 
        "float32", 
        "float32", 
        "float32", 
        "float32", 
        "float32", 
        "float32", 
        "float32", 
        "float32", 
        "float32", 
        "float32", 
        "float32", 
        "float32", 
        "float32", 
        "float32", 
        "float32", 
        "float32", 
        "float32", 
        "float32", 
        "float32", 
        "float32", 
        "float32", 
        "float32", 
        "float32", 
        "float32", 
        "float32", 
        "float32", 
        "float32", 
        "float32", 
        "float32", 
        "float32", 
        "float32", 
        "float32", 
        "float32", 
        "float32", 
        "float32", 
        "float32", 
        "float32", 
        "float32", 
        "float32", 
        "float32", 
        "float32", 
        "float32", 
        "float32", 
        "float32", 
        "float32", 
        "float32", 
        "float32", 
        "float32", 
        "float32", 
        "float32", 
        "float32", 
        "float32", 
        "float32", 
        "float32", 
        "float32", 
        "float32", 
        "float32", 
        "float32", 
        "float32", 
        "float32", 
        "float32", 
        "float32", 
        "float32", 
        "float32", 
        "float32", 
        "float32", 
        "float32", 
        "float32", 
        "float32", 
        "float32", 
        "float32", 
        "float32", 
        "float32", 
        "float32", 
        "float32", 
        "float32", 
        "float32", 
        "float32", 
        "float32", 
        "float32", 
        "float32", 
        "float32", 
        "float32", 
        "float32", 
        "float32", 
        "float32", 
        "float32", 
        "float32", 
        "float32", 
        "float32", 
        "float32", 
        "float32", 
        "float32", 
        "float32", 
        "float32", 
        "float32", 
        "float32", 
        "float32", 
        "float32", 
        "float32", 
        "float32", 
        "float32", 
        "float32", 
        "float32", 
        "float32", 
        "float32", 
        "float32", 
        "float32", 
        "float32", 
        "float32", 
        "float32", 
        "float32", 
        "float32", 
        "float32", 
        "float32", 
        "float32", 
        "float32", 
        "float32", 
        "float32", 
        "float32", 
        "float32", 
        "float32", 
        "float32", 
        "float32", 
        "float32", 
        "float32", 
        "float32", 
        "float32", 
        "float32", 
        "float32", 
        "float32", 
        "float32", 
        "float32", 
        "float32", 
        "float32", 
        "float32", 
        "float32", 
        "float32", 
        "float32", 
        "float32", 
        "float32", 
        "float32", 
        "float32", 
        "float32", 
        "float32", 
        "float32", 
        "float32", 
        "float32", 
        "float32", 
        "float32", 
        "float32", 
        "float32", 
        "float32", 
        "float32", 
        "float32", 
        "float32", 
        "float32", 
        "float32", 
        "float32", 
        "float32", 
        "float32", 
        "float32", 
        "float32", 
        "float32", 
        "float32", 
        "float32", 
        "float32", 
        "float32", 
        "float32", 
        "float32", 
        "float32", 
        "float32", 
        "float32", 
        "float32", 
        "float32", 
        "float32", 
        "float32", 
        "float32", 
        "float32", 
        "float32", 
        "float32", 
        "float32", 
        "float32", 
        "float32", 
        "float32", 
        "float32", 
        "float32", 
        "float32", 
        "float32", 
        "float32", 
        "float32", 
        "float32", 
        "float32", 
        "float32", 
        "float32", 
        "float32", 
        "float32", 
        "float32", 
        "float32", 
        "float32", 
        "float32", 
        "float32", 
        "float32", 
        "float32", 
        "float32", 
        "float32", 
        "float32", 
        "float32", 
        "float32", 
        "float32", 
        "float32", 
        "float32", 
        "float32", 
        "float32", 
        "float32", 
        "float32", 
        "float32", 
        "float32", 
        "float32", 
        "float32", 
        "float32", 
        "float32", 
        "float32", 
        "float32", 
        "float32", 
        "float32", 
        "float32", 
        "float32", 
        "float32", 
        "float32", 
        "float32", 
        "float32", 
        "float32", 
        "float32", 
        "float32", 
        "float32", 
        "float32", 
        "float32", 
        "float32", 
        "float32", 
        "float32", 
        "float32", 
        "float32", 
        "float32", 
        "float32", 
        "float32", 
        "float32", 
        "float32", 
        "float32", 
        "float32", 
        "float32", 
        "float32", 
        "float32", 
        "float32", 
        "float32", 
        "float32", 
        "float32", 
        "float32", 
        "float32", 
        "float32", 
        "float32", 
        "float32", 
        "float32", 
        "float32", 
        "float32", 
        "float32", 
        "float32", 
        "float32"]], 
    "shape": ["list_shape", [
        [1, 3, 224, 224], 
        [3], 
        [3], 
        [3], 
        [3], 
        [64, 3, 7, 7], 
        [64], 
        [64], 
        [64], 
        [64], 
        [64], 
        [64], 
        [64], 
        [64], 
        [64, 64, 3, 3], 
        [64], 
        [64], 
        [64], 
        [64], 
        [64, 64, 3, 3], 
        [64, 64, 1, 1], 
        [64], 
        [64], 
        [64], 
        [64], 
        [64, 64, 3, 3], 
        [64], 
        [64], 
        [64], 
        [64], 
        [64, 64, 3, 3], 
        [64], 
        [64], 
        [64], 
        [64], 
        [128, 64, 3, 3], 
        [128], 
        [128], 
        [128], 
        [128], 
        [128, 128, 3, 3], 
        [128, 64, 1, 1], 
        [128], 
        [128], 
        [128], 
        [128], 
        [128, 128, 3, 3], 
        [128], 
        [128], 
        [128], 
        [128], 
        [128, 128, 3, 3], 
        [128], 
        [128], 
        [128], 
        [128], 
        [256, 128, 3, 3], 
        [256], 
        [256], 
        [256], 
        [256], 
        [256, 256, 3, 3], 
        [256, 128, 1, 1], 
        [256], 
        [256], 
        [256], 
        [256], 
        [256, 256, 3, 3], 
        [256], 
        [256], 
        [256], 
        [256], 
        [256, 256, 3, 3], 
        [256], 
        [256], 
        [256], 
        [256], 
        [512, 256, 3, 3], 
        [512], 
        [512], 
        [512], 
        [512], 
        [512, 512, 3, 3], 
        [512, 256, 1, 1], 
        [512], 
        [512], 
        [512], 
        [512], 
        [512, 512, 3, 3], 
        [512], 
        [512], 
        [512], 
        [512], 
        [512, 512, 3, 3], 
        [512], 
        [512], 
        [512], 
        [512], 
        [1000, 512], 
        [1000], 
        [], 
        [], 
        [], 
        [], 
        [], 
        [], 
        [], 
        [], 
        [], 
        [], 
        [], 
        [], 
        [], 
        [], 
        [], 
        [], 
        [], 
        [], 
        [], 
        [], 
        [], 
        [], 
        [], 
        [], 
        [], 
        [], 
        [], 
        [], 
        [], 
        [], 
        [], 
        [], 
        [], 
        [], 
        [], 
        [], 
        [], 
        [], 
        [3], 
        [3], 
        [3], 
        [3], 
        [3], 
        [3], 
        [3, 1, 1], 
        [3, 1, 1], 
        [3], 
        [3, 1, 1], 
        [3, 1, 1], 
        [1, 3, 224, 224], 
        [64], 
        [64], 
        [64], 
        [64], 
        [64, 1, 1], 
        [64], 
        [64, 1, 1, 1], 
        [64, 3, 7, 7], 
        [3, 1, 1], 
        [64, 3, 7, 7], 
        [1, 64, 112, 112], 
        [64], 
        [64], 
        [64], 
        [64, 1, 1], 
        [1, 64, 112, 112], 
        [1, 64, 112, 112], 
        [1, 64, 56, 56], 
        [64], 
        [64], 
        [64], 
        [64], 
        [64], 
        [64], 
        [64], 
        [64, 1, 1], 
        [64, 1, 1], 
        [64], 
        [64, 1, 1], 
        [64, 1, 1], 
        [1, 64, 56, 56], 
        [1, 64, 56, 56], 
        [64], 
        [64], 
        [64], 
        [64], 
        [64, 1, 1], 
        [64], 
        [64, 1, 1, 1], 
        [64, 64, 3, 3], 
        [64, 1, 1], 
        [64, 64, 3, 3], 
        [1, 64, 56, 56], 
        [64], 
        [64], 
        [64], 
        [64, 1, 1], 
        [1, 64, 56, 56], 
        [1, 64, 56, 56], 
        [1, 64, 56, 56], 
        [1, 64, 56, 56], 
        [64, 1, 1], 
        [64, 64, 1, 1], 
        [1, 64, 56, 56], 
        [1, 64, 56, 56], 
        [64], 
        [64], 
        [64], 
        [64], 
        [64], 
        [64], 
        [64], 
        [64, 1, 1], 
        [64, 1, 1], 
        [64], 
        [64, 1, 1], 
        [64, 1, 1], 
        [1, 64, 56, 56], 
        [1, 64, 56, 56], 
        [64], 
        [64], 
        [64], 
        [64], 
        [64, 1, 1], 
        [64], 
        [64, 1, 1, 1], 
        [64, 64, 3, 3], 
        [64, 1, 1], 
        [64, 64, 3, 3], 
        [1, 64, 56, 56], 
        [64], 
        [64], 
        [64], 
        [64, 1, 1], 
        [1, 64, 56, 56], 
        [1, 64, 56, 56], 
        [1, 64, 56, 56], 
        [1, 64, 56, 56], 
        [64], 
        [64], 
        [64], 
        [64], 
        [64], 
        [64], 
        [64], 
        [64, 1, 1], 
        [64, 1, 1], 
        [64], 
        [64, 1, 1], 
        [64, 1, 1], 
        [1, 64, 56, 56], 
        [1, 64, 56, 56], 
        [128], 
        [128], 
        [128], 
        [128], 
        [128, 1, 1], 
        [128], 
        [128, 1, 1, 1], 
        [128, 64, 3, 3], 
        [64, 1, 1], 
        [128, 64, 3, 3], 
        [1, 128, 28, 28], 
        [128], 
        [128], 
        [128], 
        [128, 1, 1], 
        [1, 128, 28, 28], 
        [1, 128, 28, 28], 
        [1, 128, 28, 28], 
        [1, 64, 56, 56], 
        [64, 1, 1], 
        [128, 64, 1, 1], 
        [1, 128, 28, 28], 
        [1, 128, 28, 28], 
        [128], 
        [128], 
        [128], 
        [128], 
        [128], 
        [128], 
        [128], 
        [128, 1, 1], 
        [128, 1, 1], 
        [128], 
        [128, 1, 1], 
        [128, 1, 1], 
        [1, 128, 28, 28], 
        [1, 128, 28, 28], 
        [128], 
        [128], 
        [128], 
        [128], 
        [128, 1, 1], 
        [128], 
        [128, 1, 1, 1], 
        [128, 128, 3, 3], 
        [128, 1, 1], 
        [128, 128, 3, 3], 
        [1, 128, 28, 28], 
        [128], 
        [128], 
        [128], 
        [128, 1, 1], 
        [1, 128, 28, 28], 
        [1, 128, 28, 28], 
        [1, 128, 28, 28], 
        [1, 128, 28, 28], 
        [128], 
        [128], 
        [128], 
        [128], 
        [128], 
        [128], 
        [128], 
        [128, 1, 1], 
        [128, 1, 1], 
        [128], 
        [128, 1, 1], 
        [128, 1, 1], 
        [1, 128, 28, 28], 
        [1, 128, 28, 28], 
        [256], 
        [256], 
        [256], 
        [256], 
        [256, 1, 1], 
        [256], 
        [256, 1, 1, 1], 
        [256, 128, 3, 3], 
        [128, 1, 1], 
        [256, 128, 3, 3], 
        [1, 256, 14, 14], 
        [256], 
        [256], 
        [256], 
        [256, 1, 1], 
        [1, 256, 14, 14], 
        [1, 256, 14, 14], 
        [1, 256, 14, 14], 
        [1, 128, 28, 28], 
        [128, 1, 1], 
        [256, 128, 1, 1], 
        [1, 256, 14, 14], 
        [1, 256, 14, 14], 
        [256], 
        [256], 
        [256], 
        [256], 
        [256], 
        [256], 
        [256], 
        [256, 1, 1], 
        [256, 1, 1], 
        [256], 
        [256, 1, 1], 
        [256, 1, 1], 
        [1, 256, 14, 14], 
        [1, 256, 14, 14], 
        [256], 
        [256], 
        [256], 
        [256], 
        [256, 1, 1], 
        [256], 
        [256, 1, 1, 1], 
        [256, 256, 3, 3], 
        [256, 1, 1], 
        [256, 256, 3, 3], 
        [1, 256, 14, 14], 
        [256], 
        [256], 
        [256], 
        [256, 1, 1], 
        [1, 256, 14, 14], 
        [1, 256, 14, 14], 
        [1, 256, 14, 14], 
        [1, 256, 14, 14], 
        [256], 
        [256], 
        [256], 
        [256], 
        [256], 
        [256], 
        [256], 
        [256, 1, 1], 
        [256, 1, 1], 
        [256], 
        [256, 1, 1], 
        [256, 1, 1], 
        [1, 256, 14, 14], 
        [1, 256, 14, 14], 
        [512], 
        [512], 
        [512], 
        [512], 
        [512, 1, 1], 
        [512], 
        [512, 1, 1, 1], 
        [512, 256, 3, 3], 
        [256, 1, 1], 
        [512, 256, 3, 3], 
        [1, 512, 7, 7], 
        [512], 
        [512], 
        [512], 
        [512, 1, 1], 
        [1, 512, 7, 7], 
        [1, 512, 7, 7], 
        [1, 512, 7, 7], 
        [1, 256, 14, 14], 
        [256, 1, 1], 
        [512, 256, 1, 1], 
        [1, 512, 7, 7], 
        [1, 512, 7, 7], 
        [512], 
        [512], 
        [512], 
        [512], 
        [512], 
        [512], 
        [512], 
        [512, 1, 1], 
        [512, 1, 1], 
        [512], 
        [512, 1, 1], 
        [512, 1, 1], 
        [1, 512, 7, 7], 
        [1, 512, 7, 7], 
        [512], 
        [512], 
        [512], 
        [512], 
        [512, 1, 1], 
        [512], 
        [512, 1, 1, 1], 
        [512, 512, 3, 3], 
        [512, 1, 1], 
        [512, 512, 3, 3], 
        [1, 512, 7, 7], 
        [512], 
        [512], 
        [512], 
        [512, 1, 1], 
        [1, 512, 7, 7], 
        [1, 512, 7, 7], 
        [1, 512, 7, 7], 
        [1, 512, 7, 7], 
        [512], 
        [512], 
        [512], 
        [512], 
        [512, 1, 1], 
        [1, 512, 7, 7], 
        [512], 
        [512], 
        [512], 
        [512, 1, 1], 
        [1, 512, 7, 7], 
        [1, 512, 7, 7], 
        [1, 512, 1, 1], 
        [1, 512], 
        [1, 1000], 
        [1, 1000], 
        [1, 1000]]], 
    "dtype": ["list_int", [
        0, 
        0, 
        0, 
        0, 
        0, 
        0, 
        0, 
        0, 
        0, 
        0, 
        0, 
        0, 
        0, 
        0, 
        0, 
        0, 
        0, 
        0, 
        0, 
        0, 
        0, 
        0, 
        0, 
        0, 
        0, 
        0, 
        0, 
        0, 
        0, 
        0, 
        0, 
        0, 
        0, 
        0, 
        0, 
        0, 
        0, 
        0, 
        0, 
        0, 
        0, 
        0, 
        0, 
        0, 
        0, 
        0, 
        0, 
        0, 
        0, 
        0, 
        0, 
        0, 
        0, 
        0, 
        0, 
        0, 
        0, 
        0, 
        0, 
        0, 
        0, 
        0, 
        0, 
        0, 
        0, 
        0, 
        0, 
        0, 
        0, 
        0, 
        0, 
        0, 
        0, 
        0, 
        0, 
        0, 
        0, 
        0, 
        0, 
        0, 
        0, 
        0, 
        0, 
        0, 
        0, 
        0, 
        0, 
        0, 
        0, 
        0, 
        0, 
        0, 
        0, 
        0, 
        0, 
        0, 
        0, 
        0, 
        0, 
        0, 
        0, 
        0, 
        0, 
        0, 
        0, 
        0, 
        0, 
        0, 
        0, 
        0, 
        0, 
        0, 
        0, 
        0, 
        0, 
        0, 
        0, 
        0, 
        0, 
        0, 
        0, 
        0, 
        0, 
        0, 
        0, 
        0, 
        0, 
        0, 
        0, 
        0, 
        0, 
        0, 
        0, 
        0, 
        0, 
        0, 
        0, 
        0, 
        0, 
        0, 
        0, 
        0, 
        0, 
        0, 
        0, 
        0, 
        0, 
        0, 
        0, 
        0, 
        0, 
        0, 
        0, 
        0, 
        0, 
        0, 
        0, 
        0, 
        0, 
        0, 
        0, 
        0, 
        0, 
        0, 
        0, 
        0, 
        0, 
        0, 
        0, 
        0, 
        0, 
        0, 
        0, 
        0, 
        0, 
        0, 
        0, 
        0, 
        0, 
        0, 
        0, 
        0, 
        0, 
        0, 
        0, 
        0, 
        0, 
        0, 
        0, 
        0, 
        0, 
        0, 
        0, 
        0, 
        0, 
        0, 
        0, 
        0, 
        0, 
        0, 
        0, 
        0, 
        0, 
        0, 
        0, 
        0, 
        0, 
        0, 
        0, 
        0, 
        0, 
        0, 
        0, 
        0, 
        0, 
        0, 
        0, 
        0, 
        0, 
        0, 
        0, 
        0, 
        0, 
        0, 
        0, 
        0, 
        0, 
        0, 
        0, 
        0, 
        0, 
        0, 
        0, 
        0, 
        0, 
        0, 
        0, 
        0, 
        0, 
        0, 
        0, 
        0, 
        0, 
        0, 
        0, 
        0, 
        0, 
        0, 
        0, 
        0, 
        0, 
        0, 
        0, 
        0, 
        0, 
        0, 
        0, 
        0, 
        0, 
        0, 
        0, 
        0, 
        0, 
        0, 
        0, 
        0, 
        0, 
        0, 
        0, 
        0, 
        0, 
        0, 
        0, 
        0, 
        0, 
        0, 
        0, 
        0, 
        0, 
        0, 
        0, 
        0, 
        0, 
        0, 
        0, 
        0, 
        0, 
        0, 
        0, 
        0, 
        0, 
        0, 
        0, 
        0, 
        0, 
        0, 
        0, 
        0, 
        0, 
        0, 
        0, 
        0, 
        0, 
        0, 
        0, 
        0, 
        0, 
        0, 
        0, 
        0, 
        0, 
        0, 
        0, 
        0, 
        0, 
        0, 
        0, 
        0, 
        0, 
        0, 
        0, 
        0, 
        0, 
        0, 
        0, 
        0, 
        0, 
        0, 
        0, 
        0, 
        0, 
        0, 
        0, 
        0, 
        0, 
        0, 
        0, 
        0, 
        0, 
        0, 
        0, 
        0, 
        0, 
        0, 
        0, 
        0, 
        0, 
        0, 
        0, 
        0, 
        0, 
        0, 
        0, 
        0, 
        0, 
        0, 
        0, 
        0, 
        0, 
        0, 
        0, 
        0, 
        0, 
        0, 
        0, 
        0, 
        0, 
        0, 
        0, 
        0, 
        0, 
        0, 
        0, 
        0, 
        0, 
        0, 
        0, 
        0, 
        0, 
        0, 
        0, 
        0, 
        0, 
        0, 
        0, 
        0, 
        0, 
        0, 
        0, 
        0, 
        0, 
        0, 
        0, 
        0, 
        0, 
        0, 
        0, 
        0, 
        0, 
        0, 
        0, 
        0, 
        0, 
        0, 
        0, 
        0, 
        0, 
        0, 
        0, 
        0, 
        0, 
        0, 
        0, 
        0, 
        0, 
        0, 
        0, 
        0, 
        0, 
        0, 
        0, 
        0, 
        0, 
        0, 
        0, 
        0, 
        0, 
        0, 
        0, 
        0, 
        0, 
        0, 
        0, 
        0, 
        0, 
        0, 
        0, 
        0, 
        0, 
        0, 
        0, 
        0, 
        0, 
        0, 
        0, 
        0, 
        0, 
        0, 
        0, 
        0, 
        0, 
        0, 
        0, 
        0, 
        0, 
        0, 
        0, 
        0, 
        0, 
        0, 
        0, 
        0, 
        0, 
        0, 
        0]], 
    "storage_id": ["list_int", [
        17, 
        18, 
        0, 
        19, 
        20, 
        21, 
        1, 
        2, 
        1, 
        2, 
        22, 
        3, 
        2, 
        3, 
        4, 
        1, 
        3, 
        2, 
        23, 
        24, 
        25, 
        26, 
        1, 
        3, 
        1, 
        27, 
        3, 
        1, 
        5, 
        1, 
        6, 
        5, 
        1, 
        5, 
        28, 
        6, 
        1, 
        29, 
        3, 
        1, 
        6, 
        4, 
        3, 
        30, 
        1, 
        31, 
        32, 
        33, 
        5, 
        2, 
        5, 
        34, 
        2, 
        5, 
        35, 
        1, 
        6, 
        1, 
        2, 
        1, 
        5, 
        6, 
        4, 
        36, 
        37, 
        38, 
        39, 
        7, 
        1, 
        5, 
        40, 
        1, 
        7, 
        5, 
        3, 
        5, 
        3, 
        7, 
        3, 
        41, 
        5, 
        8, 
        42, 
        7, 
        5, 
        8, 
        3, 
        43, 
        7, 
        5, 
        44, 
        8, 
        3, 
        6, 
        8, 
        45, 
        5, 
        46, 
        47, 
        48, 
        154, 
        155, 
        156, 
        157, 
        158, 
        159, 
        160, 
        161, 
        162, 
        163, 
        164, 
        165, 
        166, 
        167, 
        168, 
        169, 
        170, 
        171, 
        172, 
        173, 
        174, 
        175, 
        176, 
        177, 
        178, 
        179, 
        180, 
        181, 
        182, 
        183, 
        184, 
        185, 
        186, 
        187, 
        188, 
        189, 
        190, 
        191, 
        0, 
        58, 
        9, 
        0, 
        59, 
        9, 
        60, 
        61, 
        62, 
        10, 
        11, 
        7, 
        63, 
        1, 
        2, 
        64, 
        3, 
        2, 
        5, 
        4, 
        10, 
        12, 
        6, 
        1, 
        65, 
        66, 
        67, 
        68, 
        7, 
        13, 
        2, 
        69, 
        8, 
        2, 
        3, 
        2, 
        5, 
        2, 
        3, 
        2, 
        70, 
        1, 
        13, 
        71, 
        1, 
        5, 
        1, 
        2, 
        72, 
        1, 
        2, 
        73, 
        3, 
        4, 
        13, 
        2, 
        74, 
        1, 
        75, 
        76, 
        77, 
        13, 
        7, 
        8, 
        78, 
        13, 
        6, 
        79, 
        1, 
        5, 
        1, 
        3, 
        1, 
        8, 
        1, 
        5, 
        80, 
        81, 
        82, 
        83, 
        13, 
        1, 
        8, 
        84, 
        1, 
        8, 
        14, 
        8, 
        4, 
        14, 
        13, 
        7, 
        85, 
        14, 
        8, 
        86, 
        13, 
        6, 
        13, 
        7, 
        87, 
        14, 
        1, 
        88, 
        14, 
        89, 
        90, 
        91, 
        2, 
        3, 
        2, 
        92, 
        13, 
        6, 
        93, 
        2, 
        5, 
        2, 
        8, 
        2, 
        3, 
        13, 
        14, 
        94, 
        95, 
        96, 
        97, 
        2, 
        1, 
        4, 
        98, 
        12, 
        7, 
        2, 
        4, 
        15, 
        4, 
        1, 
        2, 
        99, 
        1, 
        5, 
        100, 
        1, 
        3, 
        1, 
        2, 
        101, 
        1, 
        15, 
        102, 
        2, 
        5, 
        2, 
        3, 
        103, 
        1, 
        104, 
        105, 
        106, 
        13, 
        4, 
        2, 
        107, 
        8, 
        2, 
        108, 
        12, 
        15, 
        4, 
        1, 
        2, 
        5, 
        2, 
        8, 
        109, 
        110, 
        111, 
        112, 
        2, 
        5, 
        2, 
        113, 
        12, 
        2, 
        5, 
        2, 
        5, 
        2, 
        1, 
        2, 
        114, 
        1, 
        6, 
        115, 
        1, 
        5, 
        1, 
        2, 
        116, 
        4, 
        15, 
        117, 
        1, 
        118, 
        119, 
        120, 
        2, 
        8, 
        2, 
        121, 
        5, 
        2, 
        122, 
        1, 
        2, 
        1, 
        3, 
        1, 
        12, 
        4, 
        2, 
        123, 
        124, 
        125, 
        126, 
        1, 
        8, 
        7, 
        127, 
        6, 
        15, 
        1, 
        5, 
        1, 
        8, 
        12, 
        15, 
        128, 
        12, 
        1, 
        129, 
        2, 
        1, 
        2, 
        1, 
        130, 
        2, 
        1, 
        131, 
        5, 
        8, 
        12, 
        15, 
        132, 
        3, 
        133, 
        134, 
        135, 
        5, 
        8, 
        7, 
        136, 
        6, 
        4, 
        137, 
        5, 
        8, 
        3, 
        12, 
        4, 
        13, 
        4, 
        1, 
        138, 
        139, 
        140, 
        141, 
        5, 
        3, 
        8, 
        142, 
        5, 
        3, 
        8, 
        3, 
        8, 
        3, 
        2, 
        4, 
        143, 
        8, 
        3, 
        144, 
        2, 
        8, 
        5, 
        3, 
        145, 
        2, 
        7, 
        146, 
        147, 
        148, 
        8, 
        5, 
        12, 
        149, 
        4, 
        15, 
        3, 
        150, 
        2, 
        8, 
        151, 
        12, 
        5, 
        2, 
        8, 
        3, 
        15, 
        152, 
        5, 
        153, 
        3, 
        5]]
  }
}
