{
  "nodes": [
    {
      "op": "null", 
      "name": "data0", 
      "inputs": []
    }, 
    {
      "op": "null", 
      "name": "data1", 
      "inputs": []
    }, 
    {
      "op": "null", 
      "name": "rnnmodel1_gru0_i2h_weight", 
      "attrs": {
        "__dtype__": "0", 
        "__lr_mult__": "1.0", 
        "__shape__": "(384, 128)", 
        "__storage_type__": "0", 
        "__subgraph_name__": "foreach1", 
        "__wd_mult__": "1.0"
      }, 
      "inputs": []
    }, 
    {
      "op": "null", 
      "name": "rnnmodel1_gru0_i2h_bias", 
      "attrs": {
        "__dtype__": "0", 
        "__init__": "zeros", 
        "__lr_mult__": "1.0", 
        "__shape__": "(384,)", 
        "__storage_type__": "0", 
        "__subgraph_name__": "foreach1", 
        "__wd_mult__": "1.0"
      }, 
      "inputs": []
    }, 
    {
      "op": "null", 
      "name": "rnnmodel1_gru0_h2h_weight", 
      "attrs": {
        "__dtype__": "0", 
        "__lr_mult__": "1.0", 
        "__shape__": "(384, 128)", 
        "__storage_type__": "0", 
        "__subgraph_name__": "foreach1", 
        "__wd_mult__": "1.0"
      }, 
      "inputs": []
    }, 
    {
      "op": "null", 
      "name": "rnnmodel1_gru0_h2h_bias", 
      "attrs": {
        "__dtype__": "0", 
        "__init__": "zeros", 
        "__lr_mult__": "1.0", 
        "__shape__": "(384,)", 
        "__storage_type__": "0", 
        "__subgraph_name__": "foreach1", 
        "__wd_mult__": "1.0"
      }, 
      "inputs": []
    }, 
    {
      "op": "_foreach", 
      "name": "rnnmodel1__foreach0", 
      "attrs": {
        "in_data_locs": "[0]", 
        "in_state_locs": "[3]", 
        "num_args": "7", 
        "num_out_data": "1", 
        "num_outputs": "2", 
        "remain_locs": "[1, 2, 4, 5]"
      }, 
      "inputs": [[0, 0, 0], [1, 0, 0], [2, 0, 0], [3, 0, 0], [4, 0, 0], [5, 0, 0]], 
      "subgraphs": [
        {
          "nodes": [
            {
              "op": "null", 
              "name": "data0-0", 
              "attrs": {"__subgraph_name__": "foreach1"}, 
              "inputs": []
            }, 
            {
              "op": "null", 
              "name": "rnnmodel1_gru0_i2h_weight", 
              "attrs": {
                "__dtype__": "0", 
                "__lr_mult__": "1.0", 
                "__shape__": "(384, 128)", 
                "__storage_type__": "0", 
                "__subgraph_name__": "foreach1", 
                "__wd_mult__": "1.0"
              }, 
              "inputs": []
            }, 
            {
              "op": "null", 
              "name": "rnnmodel1_gru0_i2h_bias", 
              "attrs": {
                "__dtype__": "0", 
                "__init__": "zeros", 
                "__lr_mult__": "1.0", 
                "__shape__": "(384,)", 
                "__storage_type__": "0", 
                "__subgraph_name__": "foreach1", 
                "__wd_mult__": "1.0"
              }, 
              "inputs": []
            }, 
            {
              "op": "FullyConnected", 
              "name": "rnnmodel1_gru0_t0_i2h", 
              "attrs": {
                "__subgraph_name__": "foreach1", 
                "num_hidden": "384"
              }, 
              "inputs": [[0, 0, 0], [1, 0, 0], [2, 0, 0]]
            }, 
            {
              "op": "SliceChannel", 
              "name": "rnnmodel1_gru0_t0_i2h_slice", 
              "attrs": {
                "__subgraph_name__": "foreach1", 
                "num_outputs": "3"
              }, 
              "inputs": [[3, 0, 0]]
            }, 
            {
              "op": "null", 
              "name": "data1-0", 
              "attrs": {"__subgraph_name__": "foreach1"}, 
              "inputs": []
            }, 
            {
              "op": "null", 
              "name": "rnnmodel1_gru0_h2h_weight", 
              "attrs": {
                "__dtype__": "0", 
                "__lr_mult__": "1.0", 
                "__shape__": "(384, 128)", 
                "__storage_type__": "0", 
                "__subgraph_name__": "foreach1", 
                "__wd_mult__": "1.0"
              }, 
              "inputs": []
            }, 
            {
              "op": "null", 
              "name": "rnnmodel1_gru0_h2h_bias", 
              "attrs": {
                "__dtype__": "0", 
                "__init__": "zeros", 
                "__lr_mult__": "1.0", 
                "__shape__": "(384,)", 
                "__storage_type__": "0", 
                "__subgraph_name__": "foreach1", 
                "__wd_mult__": "1.0"
              }, 
              "inputs": []
            }, 
            {
              "op": "FullyConnected", 
              "name": "rnnmodel1_gru0_t0_h2h", 
              "attrs": {
                "__subgraph_name__": "foreach1", 
                "num_hidden": "384"
              }, 
              "inputs": [[5, 0, 0], [6, 0, 0], [7, 0, 0]]
            }, 
            {
              "op": "SliceChannel", 
              "name": "rnnmodel1_gru0_t0_h2h_slice", 
              "attrs": {
                "__subgraph_name__": "foreach1", 
                "num_outputs": "3"
              }, 
              "inputs": [[8, 0, 0]]
            }, 
            {
              "op": "elemwise_add", 
              "name": "rnnmodel1_gru0_t0_plus1", 
              "attrs": {"__subgraph_name__": "foreach1"}, 
              "inputs": [[4, 1, 0], [9, 1, 0]]
            }, 
            {
              "op": "Activation", 
              "name": "rnnmodel1_gru0_t0_z_act", 
              "attrs": {
                "__subgraph_name__": "foreach1", 
                "act_type": "sigmoid"
              }, 
              "inputs": [[10, 0, 0]]
            }, 
            {
              "op": "ones_like", 
              "name": "rnnmodel1_gru0_t0_ones_like0", 
              "attrs": {"__subgraph_name__": "foreach1"}, 
              "inputs": [[11, 0, 0]]
            }, 
            {
              "op": "elemwise_sub", 
              "name": "rnnmodel1_gru0_t0_minus0", 
              "attrs": {"__subgraph_name__": "foreach1"}, 
              "inputs": [[12, 0, 0], [11, 0, 0]]
            }, 
            {
              "op": "elemwise_add", 
              "name": "rnnmodel1_gru0_t0_plus0", 
              "attrs": {"__subgraph_name__": "foreach1"}, 
              "inputs": [[4, 0, 0], [9, 0, 0]]
            }, 
            {
              "op": "Activation", 
              "name": "rnnmodel1_gru0_t0_r_act", 
              "attrs": {
                "__subgraph_name__": "foreach1", 
                "act_type": "sigmoid"
              }, 
              "inputs": [[14, 0, 0]]
            }, 
            {
              "op": "elemwise_mul", 
              "name": "rnnmodel1_gru0_t0_mul0", 
              "attrs": {"__subgraph_name__": "foreach1"}, 
              "inputs": [[15, 0, 0], [9, 2, 0]]
            }, 
            {
              "op": "elemwise_add", 
              "name": "rnnmodel1_gru0_t0_plus2", 
              "attrs": {"__subgraph_name__": "foreach1"}, 
              "inputs": [[4, 2, 0], [16, 0, 0]]
            }, 
            {
              "op": "Activation", 
              "name": "rnnmodel1_gru0_t0_h_act", 
              "attrs": {
                "__subgraph_name__": "foreach1", 
                "act_type": "tanh"
              }, 
              "inputs": [[17, 0, 0]]
            }, 
            {
              "op": "elemwise_mul", 
              "name": "rnnmodel1_gru0_t0_mul1", 
              "attrs": {"__subgraph_name__": "foreach1"}, 
              "inputs": [[13, 0, 0], [18, 0, 0]]
            }, 
            {
              "op": "elemwise_mul", 
              "name": "rnnmodel1_gru0_t0_mul20", 
              "attrs": {"__subgraph_name__": "foreach1"}, 
              "inputs": [[11, 0, 0], [5, 0, 0]]
            }, 
            {
              "op": "elemwise_add", 
              "name": "rnnmodel1_gru0_t0_out", 
              "attrs": {"__subgraph_name__": "foreach1"}, 
              "inputs": [[19, 0, 0], [20, 0, 0]]
            }, 
            {
              "op": "_copy", 
              "name": "rnnmodel1_identity0", 
              "attrs": {"__subgraph_name__": "foreach1"}, 
              "inputs": [[21, 0, 0]]
            }
          ], 
          "arg_nodes": [0, 1, 2, 5, 6, 7], 
          "node_row_ptr": [
            0, 
            1, 
            2, 
            3, 
            4, 
            7, 
            8, 
            9, 
            10, 
            11, 
            14, 
            15, 
            16, 
            17, 
            18, 
            19, 
            20, 
            21, 
            22, 
            23, 
            24, 
            25, 
            26, 
            27
          ], 
          "heads": [[21, 0, 0], [22, 0, 0]]
        }
      ]
    }
  ], 
  "arg_nodes": [0, 1, 2, 3, 4, 5], 
  "node_row_ptr": [0, 1, 2, 3, 4, 5, 6, 8], 
  "heads": [[6, 0, 0], [6, 1, 0]], 
  "attrs": {"mxnet_version": ["int", 10301]}
}