{
  "nodes": [
    {
      "op": "null", 
      "name": "data0", 
      "inputs": []
    }, 
    {
      "op": "null", 
      "name": "data1", 
      "inputs": []
    }, 
    {
      "op": "null", 
      "name": "rnnmodel0_rnn0_i2h_weight", 
      "attrs": {
        "__dtype__": "0", 
        "__lr_mult__": "1.0", 
        "__shape__": "(128, 128)", 
        "__storage_type__": "0", 
        "__subgraph_name__": "foreach0", 
        "__wd_mult__": "1.0"
      }, 
      "inputs": []
    }, 
    {
      "op": "null", 
      "name": "rnnmodel0_rnn0_i2h_bias", 
      "attrs": {
        "__dtype__": "0", 
        "__init__": "zeros", 
        "__lr_mult__": "1.0", 
        "__shape__": "(128,)", 
        "__storage_type__": "0", 
        "__subgraph_name__": "foreach0", 
        "__wd_mult__": "1.0"
      }, 
      "inputs": []
    }, 
    {
      "op": "null", 
      "name": "rnnmodel0_rnn0_h2h_weight", 
      "attrs": {
        "__dtype__": "0", 
        "__lr_mult__": "1.0", 
        "__shape__": "(128, 128)", 
        "__storage_type__": "0", 
        "__subgraph_name__": "foreach0", 
        "__wd_mult__": "1.0"
      }, 
      "inputs": []
    }, 
    {
      "op": "null", 
      "name": "rnnmodel0_rnn0_h2h_bias", 
      "attrs": {
        "__dtype__": "0", 
        "__init__": "zeros", 
        "__lr_mult__": "1.0", 
        "__shape__": "(128,)", 
        "__storage_type__": "0", 
        "__subgraph_name__": "foreach0", 
        "__wd_mult__": "1.0"
      }, 
      "inputs": []
    }, 
    {
      "op": "_foreach", 
      "name": "rnnmodel0__foreach0", 
      "attrs": {
        "in_data_locs": "[0]", 
        "in_state_locs": "[3]", 
        "num_args": "7", 
        "num_out_data": "1", 
        "num_outputs": "2", 
        "remain_locs": "[1, 2, 4, 5]"
      }, 
      "inputs": [[0, 0, 0], [1, 0, 0], [2, 0, 0], [3, 0, 0], [4, 0, 0], [5, 0, 0]], 
      "subgraphs": [
        {
          "nodes": [
            {
              "op": "null", 
              "name": "data0-0", 
              "attrs": {"__subgraph_name__": "foreach0"}, 
              "inputs": []
            }, 
            {
              "op": "null", 
              "name": "rnnmodel0_rnn0_i2h_weight", 
              "attrs": {
                "__dtype__": "0", 
                "__lr_mult__": "1.0", 
                "__shape__": "(128, 128)", 
                "__storage_type__": "0", 
                "__subgraph_name__": "foreach0", 
                "__wd_mult__": "1.0"
              }, 
              "inputs": []
            }, 
            {
              "op": "null", 
              "name": "rnnmodel0_rnn0_i2h_bias", 
              "attrs": {
                "__dtype__": "0", 
                "__init__": "zeros", 
                "__lr_mult__": "1.0", 
                "__shape__": "(128,)", 
                "__storage_type__": "0", 
                "__subgraph_name__": "foreach0", 
                "__wd_mult__": "1.0"
              }, 
              "inputs": []
            }, 
            {
              "op": "FullyConnected", 
              "name": "rnnmodel0_rnn0_t0_i2h", 
              "attrs": {
                "__subgraph_name__": "foreach0", 
                "num_hidden": "128"
              }, 
              "inputs": [[0, 0, 0], [1, 0, 0], [2, 0, 0]]
            }, 
            {
              "op": "null", 
              "name": "data1-0", 
              "attrs": {"__subgraph_name__": "foreach0"}, 
              "inputs": []
            }, 
            {
              "op": "null", 
              "name": "rnnmodel0_rnn0_h2h_weight", 
              "attrs": {
                "__dtype__": "0", 
                "__lr_mult__": "1.0", 
                "__shape__": "(128, 128)", 
                "__storage_type__": "0", 
                "__subgraph_name__": "foreach0", 
                "__wd_mult__": "1.0"
              }, 
              "inputs": []
            }, 
            {
              "op": "null", 
              "name": "rnnmodel0_rnn0_h2h_bias", 
              "attrs": {
                "__dtype__": "0", 
                "__init__": "zeros", 
                "__lr_mult__": "1.0", 
                "__shape__": "(128,)", 
                "__storage_type__": "0", 
                "__subgraph_name__": "foreach0", 
                "__wd_mult__": "1.0"
              }, 
              "inputs": []
            }, 
            {
              "op": "FullyConnected", 
              "name": "rnnmodel0_rnn0_t0_h2h", 
              "attrs": {
                "__subgraph_name__": "foreach0", 
                "num_hidden": "128"
              }, 
              "inputs": [[4, 0, 0], [5, 0, 0], [6, 0, 0]]
            }, 
            {
              "op": "elemwise_add", 
              "name": "rnnmodel0_rnn0_t0_plus0", 
              "attrs": {"__subgraph_name__": "foreach0"}, 
              "inputs": [[3, 0, 0], [7, 0, 0]]
            }, 
            {
              "op": "tanh", 
              "name": "rnnmodel0_rnn0_t0_out", 
              "attrs": {"__subgraph_name__": "foreach0"}, 
              "inputs": [[8, 0, 0]]
            }, 
            {
              "op": "_copy", 
              "name": "rnnmodel0_identity0", 
              "attrs": {"__subgraph_name__": "foreach0"}, 
              "inputs": [[9, 0, 0]]
            }
          ], 
          "arg_nodes": [0, 1, 2, 4, 5, 6], 
          "node_row_ptr": [
            0, 
            1, 
            2, 
            3, 
            4, 
            5, 
            6, 
            7, 
            8, 
            9, 
            10, 
            11
          ], 
          "heads": [[9, 0, 0], [10, 0, 0]]
        }
      ]
    }
  ], 
  "arg_nodes": [0, 1, 2, 3, 4, 5], 
  "node_row_ptr": [0, 1, 2, 3, 4, 5, 6, 8], 
  "heads": [[6, 0, 0], [6, 1, 0]], 
  "attrs": {"mxnet_version": ["int", 10301]}
}